prebuilts/samsung/a73xqxx/system/saiv/face/cluster_pb/model_gcn_128_1_10n.tflite (tflite, 141648 bytes, 17 tensors)

MatMul_1_b0_bias f4 [64]
0	0x00000000	0.0
1	0x00000000	0.0
2	0x00000000	0.0
3	0x00000000	0.0
4	0x00000000	0.0
5	0x00000000	0.0
6	0x00000000	0.0
7	0x00000000	0.0
8	0x00000000	0.0
9	0x00000000	0.0
10	0x00000000	0.0
11	0x00000000	0.0
12	0x00000000	0.0
13	0x00000000	0.0
14	0x00000000	0.0
15	0x00000000	0.0
16	0x00000000	0.0
17	0x00000000	0.0
18	0x00000000	0.0
19	0x00000000	0.0
20	0x00000000	0.0
21	0x00000000	0.0
22	0x00000000	0.0
23	0x00000000	0.0
24	0x00000000	0.0
25	0x00000000	0.0
26	0x00000000	0.0
27	0x00000000	0.0
28	0x00000000	0.0
29	0x00000000	0.0
30	0x00000000	0.0
31	0x00000000	0.0
32	0x00000000	0.0
33	0x00000000	0.0
34	0x00000000	0.0
35	0x00000000	0.0
36	0x00000000	0.0
37	0x00000000	0.0
38	0x00000000	0.0
39	0x00000000	0.0
40	0x00000000	0.0
41	0x00000000	0.0
42	0x00000000	0.0
43	0x00000000	0.0
44	0x00000000	0.0
45	0x00000000	0.0
46	0x00000000	0.0
47	0x00000000	0.0
48	0x00000000	0.0
49	0x00000000	0.0
50	0x00000000	0.0
51	0x00000000	0.0
52	0x00000000	0.0
53	0x00000000	0.0
54	0x00000000	0.0
55	0x00000000	0.0
56	0x00000000	0.0
57	0x00000000	0.0
58	0x00000000	0.0
59	0x00000000	0.0
60	0x00000000	0.0
61	0x00000000	0.0
62	0x00000000	0.0
63	0x00000000	0.0

MatMul_3_b0_bias f4 [32]
0	0x00000000	0.0
1	0x00000000	0.0
2	0x00000000	0.0
3	0x00000000	0.0
4	0x00000000	0.0
5	0x00000000	0.0
6	0x00000000	0.0
7	0x00000000	0.0
8	0x00000000	0.0
9	0x00000000	0.0
10	0x00000000	0.0
11	0x00000000	0.0
12	0x00000000	0.0
13	0x00000000	0.0
14	0x00000000	0.0
15	0x00000000	0.0
16	0x00000000	0.0
17	0x00000000	0.0
18	0x00000000	0.0
19	0x00000000	0.0
20	0x00000000	0.0
21	0x00000000	0.0
22	0x00000000	0.0
23	0x00000000	0.0
24	0x00000000	0.0
25	0x00000000	0.0
26	0x00000000	0.0
27	0x00000000	0.0
28	0x00000000	0.0
29	0x00000000	0.0
30	0x00000000	0.0
31	0x00000000	0.0

MatMul_b0_bias f4 [128]
0	0x00000000	0.0
1	0x00000000	0.0
2	0x00000000	0.0
3	0x00000000	0.0
4	0x00000000	0.0
5	0x00000000	0.0
6	0x00000000	0.0
7	0x00000000	0.0
8	0x00000000	0.0
9	0x00000000	0.0
10	0x00000000	0.0
11	0x00000000	0.0
12	0x00000000	0.0
13	0x00000000	0.0
14	0x00000000	0.0
15	0x00000000	0.0
16	0x00000000	0.0
17	0x00000000	0.0
18	0x00000000	0.0
19	0x00000000	0.0
20	0x00000000	0.0
21	0x00000000	0.0
22	0x00000000	0.0
23	0x00000000	0.0
24	0x00000000	0.0
25	0x00000000	0.0
26	0x00000000	0.0
27	0x00000000	0.0
28	0x00000000	0.0
29	0x00000000	0.0
30	0x00000000	0.0
31	0x00000000	0.0
32	0x00000000	0.0
33	0x00000000	0.0
34	0x00000000	0.0
35	0x00000000	0.0
36	0x00000000	0.0
37	0x00000000	0.0
38	0x00000000	0.0
39	0x00000000	0.0
40	0x00000000	0.0
41	0x00000000	0.0
42	0x00000000	0.0
43	0x00000000	0.0
44	0x00000000	0.0
45	0x00000000	0.0
46	0x00000000	0.0
47	0x00000000	0.0
48	0x00000000	0.0
49	0x00000000	0.0
50	0x00000000	0.0
51	0x00000000	0.0
52	0x00000000	0.0
53	0x00000000	0.0
54	0x00000000	0.0
55	0x00000000	0.0
56	0x00000000	0.0
57	0x00000000	0.0
58	0x00000000	0.0
59	0x00000000	0.0
60	0x00000000	0.0
61	0x00000000	0.0
62	0x00000000	0.0
63	0x00000000	0.0
64	0x00000000	0.0
65	0x00000000	0.0
66	0x00000000	0.0
67	0x00000000	0.0
68	0x00000000	0.0
69	0x00000000	0.0
70	0x00000000	0.0
71	0x00000000	0.0
72	0x00000000	0.0
73	0x00000000	0.0
74	0x00000000	0.0
75	0x00000000	0.0
76	0x00000000	0.0
77	0x00000000	0.0
78	0x00000000	0.0
79	0x00000000	0.0
80	0x00000000	0.0
81	0x00000000	0.0
82	0x00000000	0.0
83	0x00000000	0.0
84	0x00000000	0.0
85	0x00000000	0.0
86	0x00000000	0.0
87	0x00000000	0.0
88	0x00000000	0.0
89	0x00000000	0.0
90	0x00000000	0.0
91	0x00000000	0.0
92	0x00000000	0.0
93	0x00000000	0.0
94	0x00000000	0.0
95	0x00000000	0.0
96	0x00000000	0.0
97	0x00000000	0.0
98	0x00000000	0.0
99	0x00000000	0.0
100	0x00000000	0.0
101	0x00000000	0.0
102	0x00000000	0.0
103	0x00000000	0.0
104	0x00000000	0.0
105	0x00000000	0.0
106	0x00000000	0.0
107	0x00000000	0.0
108	0x00000000	0.0
109	0x00000000	0.0
110	0x00000000	0.0
111	0x00000000	0.0
112	0x00000000	0.0
113	0x00000000	0.0
114	0x00000000	0.0
115	0x00000000	0.0
116	0x00000000	0.0
117	0x00000000	0.0
118	0x00000000	0.0
119	0x00000000	0.0
120	0x00000000	0.0
121	0x00000000	0.0
122	0x00000000	0.0
123	0x00000000	0.0
124	0x00000000	0.0
125	0x00000000	0.0
126	0x00000000	0.0
127	0x00000000	0.0

batch_normalization/batchnorm/mul f4 [128]
0	0x3fce7c60	1.6131706
1	0x3fcdf7ab	1.6091207
2	0x3fcbcc36	1.5921695
3	0x3fd24079	1.6425925
4	0x3fd5e6ca	1.6711056
5	0x3fc3287f	1.5246733
6	0x3fcdb8fe	1.607208
7	0x3fcfec70	1.624403
8	0x3fc3a9ff	1.5286254
9	0x3fc99abc	1.5750346
10	0x3fc87c9a	1.5663025
11	0x3fc6a2b3	1.5518402
12	0x3fd68796	1.6760128
13	0x3fd3d980	1.6550751
14	0x3fd22e87	1.6420449
15	0x3fc301ff	1.5234984
16	0x3fd490cf	1.6606692
17	0x3fd1e3f7	1.6397694
18	0x3fca19c1	1.578911
19	0x3fd53ef4	1.6659837
20	0x3fc310d2	1.5239508
21	0x3fc9c3d3	1.5762886
22	0x3fba391f	1.4548682
23	0x3fc9f270	1.5777111
24	0x3fcc97be	1.5983808
25	0x3fc62abb	1.548179
26	0x3fc7dc5c	1.5614123
27	0x3fccdd07	1.6004952
28	0x3fd40007	1.6562508
29	0x3fc93710	1.5719929
30	0x3fd394e3	1.6529812
31	0x3fc84e6b	1.5648931
32	0x3fca132a	1.5787098
33	0x3fcf92a1	1.6216623
34	0x3fcc64b1	1.5968229
35	0x3fd822ad	1.6885582
36	0x3fcaf56b	1.5856146
37	0x3fb44496	1.4083431
38	0x3fc53a9a	1.5408509
39	0x3fc7700d	1.558107
40	0x3fc99f4d	1.575174
41	0x3fc80d71	1.5629102
42	0x3fbbce2a	1.4672291
43	0x3fd5d15c	1.6704516
44	0x3fbe1c2b	1.4852346
45	0x3fc922bc	1.5713725
46	0x3fc9fb3f	1.5779799
47	0x3fc95c54	1.5731301
48	0x3fcbf23b	1.5933298
49	0x3fd7d776	1.6862628
50	0x3fc3099c	1.5237308
51	0x3fd39d99	1.653247
52	0x3fcbf891	1.5935231
53	0x3fdbe55a	1.7179368
54	0x3fdb33bc	1.7125163
55	0x3fd4fb35	1.6639162
56	0x3fca0b74	1.5784745
57	0x3fcdd678	1.6081076
58	0x3fd23f34	1.6425538
59	0x3fc25be2	1.518429
60	0x3fc220a7	1.5166215
61	0x3fc720f3	1.555693
62	0x3fcd0cdb	1.6019548
63	0x3fd20c76	1.6410053
64	0x3fd54fef	1.6665019
65	0x3fbba15f	1.4658622
66	0x3fca97f3	1.5827621
67	0x3fddb964	1.7322202
68	0x3fd63ec6	1.6737907
69	0x3fcbec49	1.5931484
70	0x3fc396e9	1.5280429
71	0x3fc6b3b9	1.5523597
72	0x3fd23b21	1.6424295
73	0x3fd69802	1.6765139
74	0x3fd4a8a3	1.6613964
75	0x3fc2fb02	1.5232852
76	0x3fc12c56	1.5091655
77	0x3fb6057d	1.4220425
78	0x3fcb6352	1.5889685
79	0x3fcc1741	1.5944597
80	0x3fd0b588	1.6305399
81	0x3fc307a7	1.523671
82	0x3fce05fc	1.6095576
83	0x3fcb386a	1.5876591
84	0x3fd1417d	1.634811
85	0x3fc548fe	1.54129
86	0x3fcd1e30	1.6024837
87	0x3fc8371d	1.5641819
88	0x3fcd0c3c	1.6019359
89	0x3fd10043	1.6328205
90	0x3fbd2f02	1.4779971
91	0x3fd4d24f	1.6626681
92	0x3fc98b31	1.5745603
93	0x3fc7b7b3	1.5602936
94	0x3fd4043c	1.6563792
95	0x3fce5926	1.6120956
96	0x3fd01594	1.6256585
97	0x3fba691c	1.4563327
98	0x3fd3f6b6	1.6559665
99	0x3fccd571	1.6002637
100	0x3fcedc65	1.6161009
101	0x3fd426ba	1.6574318
102	0x3fccebea	1.6009495
103	0x3fd495e0	1.6608238
104	0x3fd09c99	1.629779
105	0x3fcdbf31	1.6073972
106	0x3fcf27ff	1.6184081
107	0x3fd07679	1.6286155
108	0x3fd5dad0	1.6707401
109	0x3fce1976	1.610152
110	0x3fccddc1	1.6005174
111	0x3fca81fa	1.5820916
112	0x3fd4c926	1.6623886
113	0x3fc2fbc8	1.5233088
114	0x3fc57077	1.5424947
115	0x3fd26b76	1.6439044
116	0x3fc130fa	1.5093071
117	0x3fc6ce6b	1.5531744
118	0x3fcac1ae	1.5840356
119	0x3fdc69ce	1.7219789
120	0x3fd1b23e	1.638252
121	0x3fc4ffb0	1.539053
122	0x3fcb2f33	1.5873779
123	0x3fb8b0be	1.4428937
124	0x3fc22958	1.5168867
125	0x3fc280c5	1.5195547
126	0x3fc02943	1.5012592
127	0x3fbea06a	1.4892704

batch_normalization/batchnorm/sub f4 [128]
0	0x3befe893	0.007321426
1	0x3cb3713a	0.021904577
2	0x3c83603a	0.016037095
3	0xbc29cf60	-0.010364383
4	0x3b939739	0.004504111
5	0xbb09f375	-0.0021049653
6	0x39e47e06	0.00043581444
7	0xba271671	-0.00063738885
8	0xbbdaaf6e	-0.006673745
9	0x3b02fd30	0.0019987337
10	0xbc6ef6d1	-0.014585213
11	0x3bcb72ce	0.006208754
12	0xbb98cb98	-0.004662942
13	0xbc8d160d	-0.017222429
14	0x3ad63d97	0.001634526
15	0x3c0b6965	0.008509015
16	0x3c86c373	0.01645062
17	0x3bf9aea5	0.007619696
18	0x379e09d0	1.8839637e-05
19	0xbbfbb32d	-0.0076812715
20	0x3ba047dd	0.0048913793
21	0x3b962793	0.0045823543
22	0x3c0e94ab	0.008702437
23	0xbc2bc446	-0.010483807
24	0xbbedd9e4	-0.0072586406
25	0x3bbf5777	0.005839284
26	0x3ca2fe6f	0.019896714
27	0x3a9a2024	0.0011758846
28	0x3b2fdd2b	0.0026834707
29	0x3c05f6e1	0.008176536
30	0xbb36f519	-0.0027917086
31	0x3ccd01f7	0.025025351
32	0x3a8b2689	0.0010616343
33	0xbb80e6bd	-0.003933756
34	0xbaa93e06	-0.0012912161
35	0xbb6b0d4c	-0.003586608
36	0xbb231366	-0.0024883389
37	0x3bf3ff37	0.0074461955
38	0xbcb7f35e	-0.022454914
39	0x3a1884e5	0.00058181427
40	0xba095af4	-0.00052396883
41	0xbbe6564a	-0.0070293294
42	0x3b360a9f	0.0027777327
43	0xbc22aa3d	-0.009928283
44	0xba978538	-0.0011560088
45	0xbb7fe484	-0.0039046118
46	0xbc1187f3	-0.0088825105
47	0x3c60df49	0.01372511
48	0xbb38267c	-0.002809911
49	0xbbc9fff2	-0.0061645443
50	0x3b26953f	0.0025418547
51	0xbc2b033f	-0.010437786
52	0xbac327d2	-0.0014889187
53	0xbb7010cc	-0.0036631105
54	0xbbfa9051	-0.0076465984
55	0x3bb58131	0.0055390825
56	0xba824467	-0.0009938598
57	0x3afa93c1	0.001911752
58	0xbcb2570e	-0.021770027
59	0x3c42398c	0.011854541
60	0x3b57d5dd	0.003293387
61	0x3b1f2931	0.0024286027
62	0xbc6e5dfb	-0.014548774
63	0xbc38767a	-0.011258716
64	0xbb8cb9b0	-0.0042945966
65	0x3be59a86	0.007006946
66	0x3c2ac1f5	0.0104222195
67	0x3a95e744	0.001143672
68	0x3cbc13ca	0.022958655
69	0xbbed11d6	-0.007234792
70	0x3b7aa154	0.0038243132
71	0x3a331a1b	0.0006832198
72	0xbb0cbe38	-0.0021475684
73	0xbb859dbd	-0.0040776418
74	0x3c0d82f3	0.008637178
75	0xbcabd27a	-0.020974386
76	0xbb49832e	-0.0030748355
77	0xbbc5fa2b	-0.0060417852
78	0x3a843739	0.0010087258
79	0xbc77bb5a	-0.015120352
80	0x3c413ca9	0.011794248
81	0xbcd263cb	-0.02568235
82	0xbc6fef2f	-0.014644428
83	0xbb3561c0	-0.0027676672
84	0xbbe20e20	-0.0068986565
85	0x39672853	0.00022044899
86	0xbb68fd2d	-0.0035551295
87	0x3ba611ad	0.005068025
88	0xbc479df9	-0.01218366
89	0x3c1fc945	0.009752576
90	0x3bcf2728	0.0063218065
91	0x3ab90d52	0.001411835
92	0x3bb3fc7f	0.0054927464
93	0xbb396faa	-0.0028295317
94	0xbb03714b	-0.0020056542
95	0xbb755834	-0.0037436606
96	0x3aadf596	0.0013272043
97	0x3b0b02b9	0.002121134
98	0xbc34955f	-0.011021941
99	0xbafd23b3	-0.0019313007
100	0xbcad82fe	-0.021180626
101	0x3c6b9ca2	0.014380606
102	0x3b2ab959	0.0026050417
103	0xbc802454	-0.015642323
104	0xbb947b99	-0.0045313356
105	0x3be4b295	0.0069792964
106	0xbbe5bd39	-0.0070110825
107	0x3bcb3cf6	0.0062023355
108	0x39fb7fd5	0.00047969693
109	0xbc19d464	-0.009389017
110	0xbcb206ec	-0.021731816
111	0x3b3790ff	0.0028010008
112	0xbaa09a88	-0.0012253085
113	0xbb1f2bce	-0.0024287584
114	0xbc5d2ecd	-0.013499928
115	0xbc2cdfd3	-0.010551411
116	0xbc9ca816	-0.019123118
117	0xbc7404a5	-0.0148936855
118	0xbbe766bc	-0.0070618074
119	0xbb5ca7aa	-0.0033669272
120	0xbba59b93	-0.0050539463
121	0xbba1a372	-0.0049328143
122	0x3b6a12e0	0.0035716817
123	0x3c6c15bf	0.014409482
124	0x3c30ebc1	0.010798396
125	0x3aeeb83d	0.0018212866
126	0xbc43ad04	-0.011943106
127	0xbbd8cc04	-0.0066161174

conv1/MatMul_bias f4 [64]
0	0xbabfec32	-0.0014642535
1	0xbbf5d333	-0.0075019835
2	0xbbaf17f1	-0.00534343
3	0xbb85cb2f	-0.0040830593
4	0xbc2652c3	-0.010151568
5	0xba6e7e2d	-0.0009097781
6	0xbb25fa52	-0.0025326204
7	0x3c1a9f00	0.009437323
8	0x3bb823e5	0.0056195133
9	0x3cb0c7ec	0.021579705
10	0x3b944d00	0.0045257807
11	0xbc4d5809	-0.012533196
12	0x3c080de9	0.008304098
13	0x3b32d5e1	0.0027288126
14	0x3c524023	0.012832674
15	0xba66e0ec	-0.00088073197
16	0x3c38bb2e	0.011275096
17	0x3be91929	0.007113595
18	0x3bbc9a82	0.0057557235
19	0xbb044fee	-0.0020189243
20	0x3c79bdc0	0.015242994
21	0x3ce24083	0.027618652
22	0x3c02caf2	0.007982956
23	0x3cd91356	0.026498478
24	0x3bf81622	0.007570998
25	0x3b3e1386	0.0029003336
26	0x3c294843	0.01033217
27	0x3c347e2d	0.011016411
28	0x3c82ea8d	0.015980983
29	0x3b59946a	0.0033200034
30	0x3c366f5f	0.011134951
31	0xbb7976ee	-0.0038065272
32	0xbc4d96d5	-0.012548168
33	0x3b1d69cf	0.0024019366
34	0xbc3a3234	-0.011364508
35	0x3aaa113b	0.0012975106
36	0x3ce2357a	0.02761339
37	0xbb73e521	-0.003721543
38	0x3c1082bd	0.008820233
39	0xbb2854c3	-0.0025685288
40	0x3bf3eed3	0.0074442415
41	0x3a3e2ac2	0.0007254296
42	0x3bc8a6d6	0.006123404
43	0xbace2456	-0.0015727382
44	0x3bce316d	0.006292513
45	0xbbcdbe31	-0.006278776
46	0x39336777	0.00017109314
47	0x3c650c0f	0.013979926
48	0xbc868e5a	-0.0164253
49	0x3b9776b5	0.0046223053
50	0x3bce4cc0	0.0062957704
51	0x3c2033eb	0.009778003
52	0xbab91812	-0.0014121553
53	0xbad24e39	-0.0016045041
54	0xbbe08c72	-0.00685268
55	0x3d153a6c	0.03643267
56	0x3bf8e0c1	0.007595152
57	0x3abb3acb	0.001428449
58	0x3c2a8fd0	0.010410264
59	0x3c3970a0	0.011318356
60	0x3cde7377	0.027154667
61	0x3b65038a	0.0034944736
62	0x3b865e78	0.004100617
63	0x3c015bc4	0.007895414

conv1/weights/read/transpose f4 [64, 256]
0	0x3e18adc2	0.14910033
1	0x3ebe4237	0.37159893
2	0xbdeba3b8	-0.11505836
3	0x3c45fef3	0.01208471
4	0xbddbdca7	-0.107354455
5	0x3e68c55a	0.22731534
6	0xbc7661e0	-0.015037984
7	0x3ee38d50	0.4444375
8	0x3d88d97c	0.06682107
9	0x3df8a23d	0.121403195
10	0x3da9a366	0.08283119
11	0x3e0b3d65	0.13597639
12	0x3e46f0e1	0.19427826
13	0xbe8de53e	-0.2771396
14	0xbcefefcd	-0.02928915
15	0x3cf09df1	0.029372187
16	0x3e8b6b89	0.2723048
17	0x3e3fa46e	0.18715069
18	0x3c8d0396	0.017213624
19	0x3e4343f7	0.19068895
20	0xbcb637a6	-0.022243332
21	0xbdd38673	-0.103283785
22	0x3d69c1c7	0.057069566
23	0x3dee10e2	0.11624314
24	0xbdf473c6	-0.119361445
25	0x3cb75a08	0.022381797
26	0x3e5e1a30	0.21689677
27	0x3d9cb2c1	0.07651282
28	0xbe724fea	-0.23663297
29	0xbd061d0f	-0.032742556
30	0xbe28cb34	-0.16483766
31	0x3ea9e789	0.3318446
32	0x3d01f947	0.03173187
33	0x3ddf4f96	0.10903852
34	0x3e5b5476	0.21418938
35	0xbe42c18f	-0.19019149
36	0x3dadbd22	0.0848334
37	0xbe4bd4f4	-0.19905454
38	0x3da5d8f8	0.08098024
39	0x3c6a7960	0.014311165
40	0x3d82f5e1	0.06394554
41	0xb8e06486	-0.00010699876
42	0x3e0a8cbf	0.13530253
43	0x3dd2508f	0.102692716
44	0xbc92c117	-0.017914338
45	0xbd9d60f8	-0.07684511
46	0x3e22be7c	0.15892977
47	0x3d9d958e	0.07694541
48	0x3e6ac816	0.22927889
49	0x3d8c8b9f	0.06862568
50	0x3ebbdb52	0.36690766
51	0xbde004f1	-0.109384425
52	0x3e9778dc	0.29584396
53	0xbe993ff5	-0.29931608
54	0xbe29487b	-0.16531555
55	0xbdee87e2	-0.11647011
56	0x3d3cda02	0.046106346
57	0x3ecc87d4	0.3994738
58	0xbdb2975b	-0.08720275
59	0xbe29f328	-0.16596663
60	0xbd87ada4	-0.06624916
61	0xbebc11a8	-0.3673222
62	0x3d81dcb7	0.06340926
63	0xbc212b7f	-0.00983703
64	0xbbe57f9f	-0.007003739
65	0xbc193be0	-0.009352654
66	0xbdc5ff07	-0.09667783
67	0xbe8d2a2e	-0.27571243
68	0xbe5cd00c	-0.21563739
69	0xbe2334f8	-0.15938175
70	0x3d80f490	0.062966466
71	0xbe6fab73	-0.23405246
72	0x3d3fdbd9	0.046840522
73	0xbdf96151	-0.12176765
74	0x3ce08e99	0.027411746
75	0x3d078966	0.033090018
76	0xbe9d406e	-0.30713218
77	0xbcd5f382	-0.02611709
78	0x3e90b40e	0.2826237
79	0x3d520851	0.051277462
80	0x3e230643	0.15920357
81	0x3e8fd64b	0.2809318
82	0xbe74bac1	-0.23899366
83	0xbc280011	-0.010253922
84	0xbec5213f	-0.38501927
85	0xbe7a0bcd	-0.24418564
86	0x3dd1d045	0.102448024
87	0x3ddd1dd9	0.107967086
88	0xbc71cb59	-0.0147579545
89	0xbd0b34f6	-0.033986054
90	0xbe6a432f	-0.22877191
91	0x3e14adfa	0.14519492
92	0xbb908cd5	-0.0044113197
93	0x3e4b53ea	0.1985623
94	0x3e211f20	0.1573453
95	0xbe0d4c22	-0.13798574
96	0x3db0af14	0.086271435
97	0xbdb134b1	-0.08652628
98	0xbe3c12a9	-0.18366493
99	0xbd4a768c	-0.04942946
100	0x3e1b6cf1	0.15178277
101	0xbdfacd43	-0.12246182
102	0xbebc300c	-0.36755407
103	0xbe3c0287	-0.18360339
104	0xbd8ae4dd	-0.067819335
105	0x3e086d3c	0.1332292
106	0xbe3c1100	-0.1836586
107	0xbc38cc81	-0.011279226
108	0x3e15cbed	0.14628573
109	0xb8996035	-7.3135285e-05
110	0x3d376163	0.04477061
111	0xbe6678be	-0.22506997
112	0x3e7fb68b	0.24971978
113	0xbe8b21aa	-0.2717412
114	0x3f0181f4	0.5058892
115	0xbe8bfe1a	-0.27342302
116	0xbe1ec826	-0.15506038
117	0x3dfd8c3b	0.123802625
118	0x3cc9df72	0.02464268
119	0xbd9e2f27	-0.07723837
120	0xbd20a772	-0.03922219
121	0xbd835db4	-0.06414357
122	0x3db86138	0.09002918
123	0xbe07e124	-0.13269478
124	0xbe8f7e1b	-0.28025898
125	0xbd36bdd8	-0.044614643
126	0x3dcee3ff	0.101020806
127	0xbab45177	-0.0013757189
128	0x3d52b972	0.051446386
129	0x3df9100c	0.12161264
130	0x3c86446e	0.016390052
131	0x3d70d457	0.058796253
132	0xbc14d42c	-0.009083789
133	0x3d6b495d	0.05744301
134	0xbd945d33	-0.07244339
135	0x3d8e0a88	0.069356024
136	0xbce03c84	-0.027372606
137	0x3bc61240	0.006044656
138	0x3b302dc7	0.0026882754
139	0x3c118b9b	0.008883382
140	0x3d6b2a2a	0.057413258
141	0xbd51ed2d	-0.05125158
142	0x3c1a10ea	0.009403447
143	0xbd1d86d0	-0.038458645
144	0x3d514e3f	0.051100012
145	0x3da34033	0.079712294
146	0x3c413198	0.011791609
147	0xbd200d31	-0.03907508
148	0xbd3db135	-0.046311576
149	0x3c96b7f9	0.018398272
150	0x3d4e02bf	0.050295588
151	0xbd05bc60	-0.03265035
152	0xbc0a5399	-0.008442783
153	0x3d5f581b	0.054527383
154	0x3d3ebabb	0.0465648
155	0xbd4df558	-0.050282806
156	0xbcbf2b86	-0.023336183
157	0x3c7c3722	0.015394004
158	0x3d126c35	0.035747726
159	0x3c360a54	0.011110861
160	0xb958a92c	-0.00020662387
161	0xbcf58428	-0.029970244
162	0x3d1c9871	0.038231317
163	0xbc9e3784	-0.019313581
164	0x3c02de96	0.007987639
165	0xbdcd9ba6	-0.10039453
166	0x3d65c463	0.056095492
167	0x3c2b12be	0.01044148
168	0x3caab136	0.020836454
169	0xbd2ef3ed	-0.042713095
170	0xbd421f4b	-0.047393125
171	0x3d827dba	0.06371637
172	0xbb8fc5a5	-0.0043875747
173	0xbd5a0d8f	-0.053235587
174	0x3d9356a1	0.071942575
175	0x3ac6c345	0.0015164396
176	0x3cbe72a0	0.023248017
177	0x3c3d5b5f	0.011557429
178	0x3e1cac32	0.15300062
179	0xbd02d3ce	-0.031940274
180	0x3dbad470	0.091225505
181	0xbd05ab43	-0.03263403
182	0xbd514d31	-0.051099006
183	0xb9cd6743	-0.00039177583
184	0xbc2aa715	-0.010415812
185	0x3d0f7244	0.03502108
186	0xbc6ef0f6	-0.014583817
187	0x3d08b1bb	0.033372622
188	0xbd68ecd3	-0.05686648
189	0xbd81b70c	-0.063337415
190	0xbc36e102	-0.0111620445
191	0xbc3ccaf2	-0.011522995
192	0xbc975280	-0.018471956
193	0x3d029cb5	0.03188773
194	0x3d3cb2d0	0.046068966
195	0xbde12804	-0.109939605
196	0xbd8b631f	-0.06806015
197	0x3b6fb594	0.0036576735
198	0x3d22c237	0.039736
199	0xbc643c83	-0.013930443
200	0xbc038ffe	-0.008029936
201	0xbd9aad1f	-0.075525515
202	0x3dab5f19	0.08367748
203	0x3c90f0e1	0.017692985
204	0xbdaa8c68	-0.083275616
205	0x3c8813da	0.016611028
206	0x3d1853d8	0.037189335
207	0x3d072df8	0.033002824
208	0x3dbe0c60	0.09279704
209	0x3e0115dd	0.12605996
210	0xbdb9c4b7	-0.090707235
211	0xbcca3264	-0.024682231
212	0xbe27f694	-0.16402656
213	0xbd039764	-0.0321268
214	0x3d84e404	0.06488803
215	0x3d2b0bf3	0.041759443
216	0x3cc026ac	0.02345594
217	0x3d27fc27	0.041011956
218	0x3cec2405	0.02882577
219	0x3d5a92fd	0.053362835
220	0xbd4304e5	-0.04761209
221	0xbb04c5da	-0.002025953
222	0x3d264202	0.040590294
223	0xbbfb1f50	-0.007663645
224	0x3d099f6a	0.033599295
225	0xbd90530a	-0.070470884
226	0xbd885881	-0.06657506
227	0xbd45124b	-0.04811315
228	0x3dac6081	0.08416844
229	0xbd664ae3	-0.05622376
230	0xbd227da1	-0.03967059
231	0xbd26895e	-0.040658347
232	0xbd508369	-0.050906572
233	0x3c980607	0.018557562
234	0xbd96b189	-0.07358081
235	0x3ccd4fa8	0.025062397
236	0x3d98f700	0.074689865
237	0x3cfa1ed6	0.030532282
238	0xbcd89897	-0.026439948
239	0xbdbd76da	-0.09251185
240	0x3daa2bca	0.08309133
241	0xbd89f89a	-0.0673687
242	0x3dba702f	0.091034286
243	0xbcedeb0c	-0.029042743
244	0xbda8522c	-0.08218798
245	0x3dd2797a	0.10277076
246	0xbd156879	-0.036476586
247	0xbbec67ac	-0.007214507
248	0x3d035aa1	0.032068852
249	0xbd87df8d	-0.06634436
250	0x3d25a411	0.04043967
251	0xbd5b7691	-0.05357987
252	0xbd374962	-0.044747718
253	0xbd7f2303	-0.06228925
254	0x3dbc9980	0.09208965
255	0x3d615e00	0.055021286

conv2/MatMul_bias f4 [64]
0	0xbdf5abcf	-0.119956605
1	0xbe8d49a9	-0.2759526
2	0x3f433c1f	0.7626361
3	0xbe29545e	-0.1653609
4	0xbe5db5f2	-0.21651438
5	0xbf39ada2	-0.7253057
6	0xbedd4a76	-0.43220872
7	0xbf159ab4	-0.58439183
8	0x3cbaf275	0.02282069
9	0xbe7e5e6e	-0.2484071
10	0xbe367c28	-0.178208
11	0xbe7695e7	-0.2408062
12	0xbeb0336a	-0.34414226
13	0xbf0853ee	-0.53253067
14	0x3dadc832	0.0848545
15	0xbe2e0421	-0.16993763
16	0xc015f81e	-2.3432689
17	0xbe14dbbd	-0.14536949
18	0xbdb11313	-0.08646216
19	0xbeaaf35b	-0.3338879
20	0xbe315e76	-0.1732119
21	0xbef27090	-0.47351503
22	0xbe25333c	-0.16132826
23	0x3dd637a5	0.10459832
24	0xbdd2f6c0	-0.1030097
25	0xbda90354	-0.08252588
26	0xbe624ed2	-0.2210038
27	0xbd3dbd27	-0.046322968
28	0xbdfd6af2	-0.12373914
29	0xbe665bca	-0.22495952
30	0xbf9c0b48	-1.2190943
31	0xbf4bfd7c	-0.7968366
32	0xbd4b493f	-0.0496304
33	0xbdf42d14	-0.119226605
34	0xbfbc5de7	-1.4716157
35	0xbd840141	-0.06445552
36	0xbea60a2b	-0.32429633
37	0xbebb7c33	-0.36618194
38	0xbe32fccf	-0.17479251
39	0xbf197ba9	-0.59954315
40	0xbe753cc5	-0.23948963
41	0xbe086f9f	-0.1332383
42	0xbe607720	-0.21920443
43	0xbef2a7d1	-0.4739366
44	0xbfb78714	-1.4338098
45	0x3fb2e60c	1.3976455
46	0xbf0ea6c0	-0.5572319
47	0xbe6e61b9	-0.23279466
48	0xbe45b1e8	-0.19306147
49	0xbf61dcb0	-0.8822737
50	0xbe31ede7	-0.17375909
51	0xc000e983	-2.0142524
52	0xbea851ff	-0.32875058
53	0xbee6b3dc	-0.45059097
54	0xbf2c8d31	-0.6740294
55	0xbe20eb6e	-0.1571481
56	0xbf854ab9	-1.0413429
57	0xbd8cd988	-0.06877428
58	0x3f16a6bc	0.58848166
59	0xbe3b0017	-0.18261753
60	0xbe0c3355	-0.13691457
61	0xbf1fee44	-0.6247294
62	0x3dcbcd27	0.09951239
63	0xbe193294	-0.149607

conv2/weights/read/transpose f4 [64, 128]
0	0x3d317c5c	0.04333149
1	0x3d1190cd	0.035538483
2	0x3e37fc7f	0.17967413
3	0x3e09ea6c	0.13468331
4	0xbd26995d	-0.040673602
5	0xbd2e68cb	-0.042580407
6	0xbd22d06a	-0.03974954
7	0x3d077417	0.033069696
8	0x3d8762ec	0.06610665
9	0xbdb57961	-0.08861042
10	0x3d58e61e	0.05295383
11	0xbbe42f36	-0.006963636
12	0x3d9b7af7	0.07591813
13	0xbd401fe6	-0.04690542
14	0x3d55522f	0.05208033
15	0xbdc340c4	-0.095338374
16	0x3d1a77a3	0.03771175
17	0xbd904a93	-0.07045474
18	0xbd44f89d	-0.04808866
19	0xbdac4fa4	-0.08413628
20	0x3d752529	0.05984989
21	0x3d058d3d	0.0326054
22	0xbd3d6bf7	-0.04624554
23	0xbe00a7c4	-0.12563998
24	0xbb107afe	-0.0022045965
25	0x3d95fd3c	0.07323691
26	0x3cd3040f	0.025758771
27	0x3df68f37	0.12039035
28	0x3d07c49b	0.033146482
29	0xbd287231	-0.041124526
30	0xbd2ac71d	-0.041693795
31	0xbe0e2cc2	-0.13884261
32	0x3d019e35	0.03164502
33	0xbda64b05	-0.081197776
34	0x3d74aed8	0.059737056
35	0x3d36e59d	0.04465257
36	0x3c38310b	0.0112421615
37	0x3d36f247	0.044664647
38	0x3c711435	0.01471429
39	0xbdbceae8	-0.09224492
40	0xbd2d872c	-0.042365238
41	0xbd036909	-0.03208259
42	0x3d6e4690	0.058172762
43	0xbd661f80	-0.056182384
44	0xbbc9610c	-0.006145602
45	0x3d0adedb	0.033903938
46	0xbd184efa	-0.037184693
47	0x3dbac938	0.09120411
48	0x3cf6ec0a	0.03014185
49	0x3d880556	0.06641643
50	0xbcdaa405	-0.026689539
51	0x3bcd2417	0.0062604058
52	0xbd92e5d3	-0.07172742
53	0xbd8c26f6	-0.06843369
54	0xbd00f624	-0.031484738
55	0xbdf66711	-0.12031377
56	0x3b35e440	0.0027754456
57	0x3da5555f	0.08072924
58	0x3cd4cd8b	0.025976917
59	0xbd9cc8b5	-0.07655469
60	0x3e07f68f	0.13277648
61	0x3dd5963d	0.10429046
62	0xbca0e5d2	-0.019640837
63	0xbbf77888	-0.0075522102
64	0xbcd5e7b2	-0.026111457
65	0x3e04ae87	0.12957202
66	0xbdf3bfc9	-0.119018145
67	0xbddf1b8b	-0.10893925
68	0x3dcd4ad6	0.100240394
69	0x3dc85bb3	0.09783115
70	0xbd30d551	-0.043172184
71	0xbd1eb597	-0.038747396
72	0x3e2a3a35	0.16623767
73	0x3d0d8def	0.034559187
74	0x3cb8bb87	0.022550358
75	0x3d03215a	0.03201423
76	0xbd9616a9	-0.07328541
77	0x3d995e1a	0.074886516
78	0xbd901077	-0.070343904
79	0x3d8d7cab	0.06908544
80	0xbdef373b	-0.11680456
81	0x3d8d87fb	0.06910702
82	0xbd9b1055	-0.075714745
83	0x3e2e661d	0.1703114
84	0xbd51e8b3	-0.05124731
85	0xbd6f63f2	-0.058444925
86	0xbe4357ad	-0.19076414
87	0xbbcfbef9	-0.0063399044
88	0xbde90430	-0.11377752
89	0xbdb71bea	-0.08940871
90	0xbc88d94d	-0.01670518
91	0x3d1a4544	0.037663713
92	0xbddf0a9e	-0.10890697
93	0x3dc65b28	0.096853554
94	0xbd6b0d69	-0.057385836
95	0xbc11fc9a	-0.008910323
96	0x3de7d6de	0.113202795
97	0x3d952011	0.07281507
98	0xbd639de1	-0.055570487
99	0x3df0b2b2	0.117528334
100	0x3d5aadfc	0.05338858
101	0xbcd046c1	-0.025424363
102	0xbd45522c	-0.04817407
103	0x3e028f1d	0.12749906
104	0x3cadbd31	0.021208378
105	0x3dac55da	0.084148124
106	0xbcff66b7	-0.031176908
107	0x3db84a01	0.0899849
108	0xbcf40c5a	-0.029791046
109	0x3d329a28	0.043604046
110	0x3e1af48e	0.15132353
111	0xbcd8dcdc	-0.026472501
112	0x381653da	3.584088e-05
113	0xbe044cc0	-0.12919903
114	0xbdb5df3d	-0.0888047
115	0x3dfc4398	0.1231758
116	0x3d373925	0.04473223
117	0xbdb0be8c	-0.08630094
118	0xbb932bb6	-0.0044912947
119	0x3d03ce90	0.032179415
120	0x3b9c537e	0.004770695
121	0xbe5df584	-0.21675688
122	0x3dbc09ac	0.09181532
123	0x3d33dac9	0.04390982
124	0xbe5af935	-0.21384127
125	0xbc35cb15	-0.011095782
126	0x3e36a097	0.17834698
127	0xbc2d2ffa	-0.010570521
128	0x3cae4052	0.021270905
129	0x3e36a546	0.17836484
130	0x3db0093c	0.08595511
131	0xbd891db8	-0.066951215
132	0xbdaab2da	-0.083348945
133	0xbd9078e3	-0.07054307
134	0x3c47c3a4	0.01219264
135	0x3e108b07	0.14115535
136	0xbc86b598	-0.016444013
137	0xbd612751	-0.054969136
138	0xbc190ba2	-0.009341152
139	0xbc6a2ff9	-0.014293664
140	0x3d8a2d29	0.06746895
141	0x3de46e75	0.111538805
142	0xbd8c1e8b	-0.06841763
143	0x3c44661d	0.011987236
144	0x3da4717c	0.08029458
145	0xbc30339a	-0.01075449
146	0x3db1db20	0.08684373
147	0xbdb9d2e3	-0.090734266
148	0x3e122499	0.14271773
149	0x3d973efb	0.073850594
150	0xbdf6030f	-0.12012302
151	0x3ce77a09	0.028256433
152	0x3c2108ed	0.009828788
153	0xbdacbb4e	-0.08434163
154	0xbce0149e	-0.027353581
155	0x3d2922a1	0.04129279
156	0x3deb1e93	0.11480441
157	0xbe00d665	-0.12581785
158	0x3c56ba69	0.013105967
159	0x3de2aa54	0.11067644
160	0x3c87ec99	0.01659231
161	0xbcd4949f	-0.025949774
162	0xbd9baeda	-0.0760171
163	0xbb8bec32	-0.0042701
164	0x3e1e53a8	0.154616
165	0x3b66a88f	0.0035195684
166	0x3b143600	0.0022615194
167	0x3cce979e	0.025218781
168	0xbde30ca1	-0.11086393
169	0x3b3ba4eb	0.0028632234
170	0xbd91bed3	-0.07116475
171	0xbcbfbb0a	-0.023404617
172	0xbc8b7e34	-0.017027952
173	0x3df5d968	0.120043576
174	0xbd68ec66	-0.056866072
175	0x3ab511d6	0.001381452
176	0xbb0a433a	-0.00210972
177	0xbc91abc8	-0.017782107
178	0x3d9ca65d	0.07648919
179	0x3d2fd0ce	0.04292374
180	0x3e393da8	0.18089926
181	0x3ba6357c	0.005072294
182	0x3dbe0bb3	0.09279575
183	0x3e3deebb	0.185481
184	0x3c5a2135	0.013313581
185	0xbe0104dd	-0.12599511
186	0xbd337e3b	-0.043821555
187	0x3e43743c	0.19087309
188	0xbbc5dc5d	-0.0060382322
189	0x3d95f1cd	0.073215105
190	0x3c7ca24e	0.015419556
191	0xbd0ce04a	-0.034393586
192	0x3e1649d3	0.14676599
193	0xbd4edc04	-0.050502792
194	0xbe289584	-0.16463286
195	0xbc0455b4	-0.008077074
196	0x3de42a27	0.111408524
197	0x3d484a64	0.04889907
198	0xbd842169	-0.06451685
199	0xbdbc0b47	-0.091818385
200	0x3de7c6b6	0.11317198
201	0x3d540560	0.05176294
202	0x3c322329	0.010872641
203	0x3db50180	0.08838177
204	0xbe190ee0	-0.1494708
205	0xbddb7f60	-0.10717654
206	0x3e7235ff	0.2365341
207	0xbdff6fe3	-0.124725126
208	0x3dceed7c	0.1010389
209	0x3de1fdab	0.110347115
210	0x3d274a66	0.040842436
211	0x3c2c326b	0.010510067
212	0xbd31ca75	-0.04340597
213	0x3e3e5fb2	0.18591192
214	0x3d768023	0.060180794
215	0xbe49a4ba	-0.19691744
216	0xbd4e3be8	-0.0503501
217	0x3dbe34b9	0.092874
218	0x3e0f75ce	0.14009783
219	0xbd4027f6	-0.04691311
220	0xbe527810	-0.20553613
221	0x3e528029	0.20556702
222	0x3df7b0bc	0.12094256
223	0xbca7076f	-0.020389287
224	0x3afaaf92	0.001912581
225	0xbc8a1e9d	-0.0168603
226	0x3e402e99	0.18767776
227	0xbba87859	-0.0051412997
228	0xbe010b2d	-0.1260192
229	0x3d9baf67	0.07601815
230	0xbd832e3c	-0.06405303
231	0xbd34978e	-0.044089846
232	0x3e25f44a	0.1620647
233	0x3d02e932	0.031960674
234	0x3d5a55b7	0.0533044
235	0xbd21b8f2	-0.03948302
236	0xbb6a7611	-0.003577594
237	0xbdc6fb54	-0.09715906
238	0xbca8c8c8	-0.020603552
239	0xbd5028b6	-0.050820075
240	0x3d817cad	0.06322608
241	0x3e042043	0.12902932
242	0xbd83bcb7	-0.06432479
243	0xbe411b04	-0.18857962
244	0xbe39d4b1	-0.18147542
245	0x3d568f11	0.052382533
246	0xbd969eaf	-0.07354485
247	0xbde38502	-0.111093536
248	0x3d2ea584	0.042638317
249	0x3dcb4c7d	0.09926698
250	0xbd689117	-0.056778993
251	0xbe09a875	-0.13443168
252	0xbd8a56eb	-0.067548595
253	0xbd9ef000	-0.0776062
254	0x3e7878f1	0.24264885
255	0xbc143074	-0.009044755

conv3/MatMul_bias f4 [32]
0	0x3ded5c29	0.11589844
1	0x3e036a5a	0.12833539
2	0xbe9a718b	-0.3016475
3	0xbb2538ff	-0.0025210974
4	0xbe91a7ef	-0.28448436
5	0x3e5b3c40	0.21409702
6	0x3fad8494	1.3556085
7	0x3e32152d	0.1739089
8	0xbe8e2a66	-0.27766722
9	0x3ed2a90d	0.411446
10	0x3e171880	0.1475544
11	0x3e9120db	0.2834538
12	0xbd9ca252	-0.07648148
13	0xbf18d886	-0.5970539
14	0x3ef8272e	0.48467392
15	0xbd2079e1	-0.039178733
16	0x3b84bbe1	0.004050717
17	0xbca94cf5	-0.020666579
18	0x3ed421fe	0.41432184
19	0xbd9f3cb8	-0.07775253
20	0x3d0c5c2f	0.0342676
21	0xbd33b46d	-0.04387324
22	0x3e4b5bb6	0.19859204
23	0x3de93972	0.1138791
24	0xbdf92a1e	-0.12166236
25	0xbdc3b122	-0.0955527
26	0x3f6dc18a	0.9287344
27	0xbc92a1f6	-0.017899495
28	0xbf5187e1	-0.8184796
29	0xbea67c4e	-0.32516712
30	0xbd7d5b3f	-0.061854597
31	0x3e073847	0.13205062

conv3/weights/read/transpose f4 [32, 128]
0	0xbd6526cc	-0.055945203
1	0x3dc02799	0.09382553
2	0xbdcfdbbc	-0.10149333
3	0x3d988047	0.07446342
4	0x3e31da9d	0.1736855
5	0x3dbc4a78	0.09193891
6	0x3c81499d	0.015782172
7	0x3d4dfda4	0.05029072
8	0x3d10e7ad	0.035377193
9	0x3db6bac7	0.08922344
10	0x3dceb329	0.10092766
11	0x3daef2cb	0.08542403
12	0x3d1f0da8	0.038831383
13	0xbd267969	-0.04064313
14	0x3e2f866d	0.17141123
15	0x3c2477e4	0.01003835
16	0x3df3d3fe	0.11905669
17	0x3d70a4fc	0.05875109
18	0x3d93d9d4	0.07219282
19	0xbd629cef	-0.055325445
20	0xbc328d57	-0.010897956
21	0xbaca8dcf	-0.0015453639
22	0x3cac802f	0.021057216
23	0x3e470f74	0.19439489
24	0x3e1ae14e	0.1512501
25	0x3d642244	0.05569674
26	0xbd372e1f	-0.04472172
27	0x3cf77afe	0.030210014
28	0x3dcd92ab	0.1003774
29	0x3d6ac782	0.05731917
30	0x3b645c1c	0.003484494
31	0xbd0c3000	-0.034225464
32	0x3d9f6135	0.07782213
33	0x3db21e11	0.08697141
34	0x3d067352	0.03282482
35	0xbd73e4c7	-0.05954435
36	0x3d9df4a8	0.0771268
37	0x3d8ca700	0.0686779
38	0x3d8c797d	0.068591096
39	0xbcca8afc	-0.024724476
40	0x3e083f74	0.13305455
41	0x3d400a73	0.046884965
42	0x3ded1de0	0.11577964
43	0x3df28a70	0.11842811
44	0xbd6783ca	-0.05652217
45	0xbe851571	-0.2599292
46	0x3d14a6fa	0.036292054
47	0x3dddfe5d	0.108395316
48	0x3d735b41	0.0594132
49	0x3dcb5338	0.09927982
50	0xbcc07036	-0.023491006
51	0xbc25afae	-0.010112686
52	0x3e44c399	0.1921524
53	0x3d8790a2	0.066193834
54	0xbd22426d	-0.03961413
55	0xbd384a57	-0.04499277
56	0x3d84b633	0.06480064
57	0xbd07e7a3	-0.03317989
58	0xbd678126	-0.05651965
59	0xbcac2f69	-0.0210187
60	0x3dd17657	0.1022765
61	0x3d9652ab	0.073399864
62	0xbc1cd5a8	-0.009572424
63	0x3dd6d16a	0.10489161
64	0xbd5ee68b	-0.05441908
65	0x3d0e2015	0.034698565
66	0xbe72912e	-0.23688194
67	0x3d32c1e6	0.043641947
68	0xbc96ba87	-0.01839949
69	0xbdd1e3a5	-0.10248498
70	0x3cfdf371	0.030999871
71	0x3d01bbf6	0.031673394
72	0xbd8936e1	-0.066999204
73	0xbc162d4b	-0.009166072
74	0xba6058b8	-0.0008558142
75	0x3c7e8b0e	0.015536083
76	0xbc3b7952	-0.011442499
77	0xbddbe1d1	-0.107364304
78	0x3da22872	0.079178706
79	0x3db4ffca	0.088378504
80	0x3e378a63	0.17923884
81	0xbd39ef41	-0.045394186
82	0xbc90305f	-0.01760119
83	0xbda97856	-0.082749054
84	0xbd3ef321	-0.046618585
85	0x3d931fad	0.07183776
86	0xbd7cef1f	-0.06175148
87	0xbcc5dea2	-0.024154011
88	0x3c28e15a	0.010307634
89	0xbddc7cb4	-0.10765973
90	0x3dadc2de	0.084844336
91	0xbce50f61	-0.027961435
92	0x3d152252	0.036409684
93	0x3db89074	0.09011927
94	0x3e04da27	0.12973844
95	0x3d79b760	0.060965896
96	0x3c0ad574	0.008473743
97	0x3db26ac5	0.08711771
98	0x3e5581a5	0.20850237
99	0x3de202ca	0.11035688
100	0x3d3da532	0.04630012
101	0xbd0ccc40	-0.034374475
102	0x3d1e59f3	0.03866
103	0x3d053267	0.03251877
104	0xbd858f1b	-0.06521436
105	0x3e05cbf4	0.13066083
106	0xb8e011fb	-0.000106845015
107	0xbc3e5dbd	-0.011619029
108	0xbeb0090a	-0.34381896
109	0xbf7af32b	-0.98027295
110	0xbd10b772	-0.035331197
111	0xbd817dd1	-0.06322826
112	0x3dad4459	0.08460302
113	0xbdd81098	-0.1055004
114	0x3c58ec01	0.0132398615
115	0xbee5ec20	-0.44906712
116	0x3d6347bb	0.05548833
117	0xbd80d22b	-0.06290086
118	0xbdc1aa9e	-0.09456371
119	0x3d06ff49	0.032958303
120	0xbcb20c28	-0.021734312
121	0x3dd0bca1	0.10192228
122	0xbeb7abe0	-0.35873318
123	0x3cf02d9b	0.029318621
124	0x3d80f747	0.062971644
125	0x3c9bf061	0.01903552
126	0xbd44941e	-0.047992818
127	0x3d1c65b0	0.038182914
128	0xbd4303dc	-0.047611102
129	0xbce3a704	-0.0277896
130	0xbe7a96ab	-0.24471538
131	0xbad10a20	-0.0015948452
132	0xbce91422	-0.028451983
133	0x3d6853e9	0.056720648
134	0x3cdae10d	0.02671864
135	0x3dacb0f8	0.084321916
136	0xbdf8718f	-0.121310346
137	0xbc810db8	-0.015753612
138	0x3dbacd1d	0.091211535
139	0xbd98f56a	-0.07468684
140	0xbbecdc19	-0.007228386
141	0x3d9433c6	0.072364375
142	0x3cef6065	0.02922077
143	0x3e031a2d	0.12802954
144	0xbe369d3c	-0.17833418
145	0xbd2d49a7	-0.04230657
146	0x3dc4e64f	0.096142404
147	0xbc195704	-0.009359125
148	0xbdbb0ff8	-0.09133905
149	0x3c81be5c	0.01583784
150	0xbd332ece	-0.04374581
151	0xbc6b3fc3	-0.014358464
152	0x3dd9b824	0.10630825
153	0xbcf13778	-0.029445395
154	0xbd12361f	-0.035696145
155	0xbb37d8e3	-0.0028052859
156	0xbcc27a93	-0.023740089
157	0x3c42fc84	0.011901025
158	0xbc919630	-0.01777181
159	0x3c77b52d	0.015118879
160	0xbcf3a6e4	-0.029742666
161	0x3e88ed4b	0.2674354
162	0x3d2d6a82	0.042337902
163	0x3d9ea7ad	0.07746825
164	0xbdb9300e	-0.09042369
165	0x3db260ce	0.0870987
166	0x3d7027d3	0.05863173
167	0xbd724122	-0.059144147
168	0xbd99ca3e	-0.07509278
169	0xbdeb40e6	-0.11486988
170	0x3d8ad377	0.06778615
171	0xbd3fc086	-0.046814464
172	0x3e25c950	0.16190076
173	0xbee9858f	-0.4560971
174	0x3d90e574	0.07075015
175	0xbd52e3ae	-0.051486664
176	0x3c6e9ab0	0.014563248
177	0x3e0ef98e	0.13962385
178	0xbe0d3965	-0.13791426
179	0x3dc0b77e	0.09409998
180	0x3e288d2d	0.16460104
181	0x3d584310	0.05279833
182	0x3d69228a	0.056917705
183	0x3da2375b	0.079207145
184	0xbbdf3d90	-0.0068127587
185	0xbd470e1d	-0.048597444
186	0xbe43cf50	-0.19122052
187	0xbdd83d18	-0.10558528
188	0xbd1aa07c	-0.037750706
189	0x3db5d2c6	0.088780925
190	0xbdff0e6b	-0.12453922
191	0x3d12a067	0.035797503
192	0xbda352b7	-0.07974761
193	0x3dbf85d1	0.09351695
194	0xbd101740	-0.035178423
195	0xbd932a9c	-0.071858615
196	0x3bb60656	0.0055549545
197	0x3c8d2b0f	0.017232446
198	0xbda52e73	-0.080655
199	0x3d9a1a24	0.07524517
200	0x3dd8c062	0.10583569
201	0xbd6cf219	-0.05784807
202	0xbc3a4d86	-0.011371022
203	0x3d85b729	0.06529076
204	0x3b923e9e	0.004463031
205	0x3ced21f4	0.028946854
206	0x3d4ef199	0.050523374
207	0x3d85fd8b	0.065425
208	0xbe6adf0f	-0.22936653
209	0x3e101c4c	0.14073294
210	0x3e233c53	0.1594098
211	0x3d942d34	0.07235184
212	0x3c8273da	0.015924383
213	0xbd784df3	-0.060621213
214	0xbc44976c	-0.011998992
215	0x3d7e763a	0.06212447
216	0xbc127601	-0.008939267
217	0xbdcbf314	-0.09958473
218	0xbd55307c	-0.05204819
219	0xbd290c8f	-0.041271742
220	0xbbc9b4f8	-0.0061556064
221	0xbd11f664	-0.035635367
222	0xbd588ded	-0.052869726
223	0x3dfdfbac	0.12401518
224	0x3d758893	0.0599447
225	0x3e6ca375	0.23109229
226	0xbcaba407	-0.020952238
227	0xbc5c4d1c	-0.013446119
228	0xbd54590a	-0.051842727
229	0x3d877a90	0.06615174
230	0xbe07ea91	-0.13273074
231	0x3d701e95	0.058622915
232	0xbcf27951	-0.029598864
233	0x3cfb7c59	0.030698942
234	0x3c8a2784	0.016864546
235	0xbd3ad26b	-0.045610826
236	0x3e9d8bdd	0.3077077
237	0x3dbb4ac0	0.09145117
238	0x3ca5117a	0.020149935
239	0x3d82f8b6	0.06395094
240	0xbe0c7bd0	-0.13719106
241	0xbd47375e	-0.048636787
242	0x3abe1a59	0.0014503702
243	0x3e0358a6	0.12826785
244	0xbc998ec1	-0.018744828
245	0xbcb0f040	-0.021598935
246	0x3d855c27	0.06511717
247	0xbd5d5d2f	-0.054043945
248	0x3d9904b8	0.07471603
249	0xbc7818e9	-0.015142658
250	0x3e0e96f2	0.13924769
251	0xbcf28ef6	-0.029609185
252	0xbd1b2ec9	-0.037886415
253	0x3c8b58f9	0.017010199
254	0x3da28c56	0.07936923
255	0xbb24b10e	-0.0025129947

conv4/MatMul_bias f4 [32]
0	0xbdd3f940	-0.10350275
1	0x3ec54a0d	0.3853306
2	0xbe3e43bb	-0.18580525
3	0xbd888f0d	-0.0666791
4	0x3dc39932	0.09550704
5	0xbdbca3cb	-0.092109285
6	0xb83a9edb	-4.44938e-05
7	0x3b83457d	0.0040060864
8	0xbd48a264	-0.048982993
9	0xbca9e43a	-0.02073871
10	0xbbe01e0b	-0.006839519
11	0x3dc95aa6	0.09831743
12	0x3abf0bab	0.0014575621
13	0x3d0c1531	0.034199897
14	0x3ba72ddb	0.005101902
15	0x3e9d9a23	0.3078166
16	0x3d3b8591	0.045781676
17	0xbdc02298	-0.09381598
18	0x3d6b32bc	0.05742143
19	0xbde03865	-0.109482564
20	0xbe37b61e	-0.17940566
21	0x3dbbcee2	0.09170319
22	0x3d80d5b5	0.062907614
23	0x3d261292	0.040545054
24	0x3e80ad16	0.25132054
25	0x3e35e301	0.17762376
26	0xbd7f6c51	-0.062359158
27	0x3e47bbb7	0.19505201
28	0xbd873b61	-0.066031225
29	0xbe8479aa	-0.25874072
30	0x3d0ab773	0.033866357
31	0xbd0bde76	-0.034147702

conv4/weights/read/transpose f4 [32, 64]
0	0xbde574ce	-0.11203919
1	0xbe9db4d1	-0.30802014
2	0xbe3f6d21	-0.18693973
3	0x3e0e6828	0.1390692
4	0x3d8c02c0	0.06836462
5	0xbe5bba31	-0.21457745
6	0x3e0bf126	0.1366621
7	0xbd15b131	-0.036545936
8	0xbecfefea	-0.40612727
9	0x3e775984	0.24155241
10	0xbe0ef559	-0.1396078
11	0xbddc7f2f	-0.10766446
12	0xbd40d9f3	-0.047082853
13	0xbec94de6	-0.39317244
14	0xbe9359b6	-0.28779382
15	0x3dfaefd1	0.122527726
16	0x3d3f5ef2	0.046721406
17	0xbe22e1fc	-0.15906519
18	0x3db93562	0.09043385
19	0xbd4bcae5	-0.049754042
20	0xbd6e6085	-0.058197517
21	0xbcb0a582	-0.021563295
22	0x3e631fd7	0.22180115
23	0x3e893082	0.2679482
24	0x3e2a02a0	0.16602564
25	0xbe812fe1	-0.2523184
26	0xbe43d084	-0.19122511
27	0xbd74b36d	-0.059741426
28	0xbe70edbb	-0.23528187
29	0xbed608b7	-0.41803524
30	0x3d98da83	0.07463553
31	0x3dd21e44	0.10259679
32	0xbc1a4ff8	-0.00941848
33	0x3eec9031	0.4620376
34	0x3e9e09d3	0.3086687
35	0x3e83560b	0.25651583
36	0x3cfd13cb	0.030893227
37	0xbdbbb295	-0.09164921
38	0x3f0fae10	0.56124973
39	0xbebfff9d	-0.37499705
40	0x3ea177b9	0.31536654
41	0xbf591fa3	-0.848139
42	0x3ec99f8d	0.3937954
43	0x3dc824c1	0.09772635
44	0x3e395c75	0.18101676
45	0x3e754f9b	0.23956148
46	0x3de5d37f	0.1122198
47	0x3d8501a3	0.06494453
48	0xbc5f8bf2	-0.013644205
49	0xbd2e60b1	-0.04257268
50	0x3ec80a89	0.39070538
51	0x3d744a14	0.05964096
52	0x3e21d883	0.15805249
53	0xbdb1cae1	-0.08681274
54	0xbe2f4f41	-0.17120077
55	0xbe43ea07	-0.19132243
56	0xbdee4a64	-0.11635283
57	0x3e79f58f	0.2441008
58	0x3f14a427	0.58062977
59	0xbe456d51	-0.19279982
60	0xbf1a88fa	-0.6036526
61	0x3e477787	0.1947919
62	0x3dc0e72f	0.09419095
63	0xbe8a20a1	-0.2697802
64	0x3e61875e	0.22024295
65	0xbe894605	-0.26811233
66	0xbd1c12b0	-0.03810376
67	0x3daef743	0.08543255
68	0xbdac7831	-0.08421362
69	0xbcae233b	-0.021257034
70	0xbe50f711	-0.20406748
71	0x3e689624	0.22713524
72	0xbe97e5f2	-0.29667622
73	0x3edd3332	0.4320312
74	0xbdce078e	-0.10060035
75	0xbd7c9567	-0.06166592
76	0xbe743f7e	-0.23852345
77	0xbe9be042	-0.30444533
78	0xbe510adb	-0.20414297
79	0x3e904447	0.2817709
80	0x3e344feb	0.17608611
81	0x3d63967c	0.055563435
82	0x3e3b78eb	0.18307845
83	0x3e2b1f97	0.1671127
84	0xbe22d0ff	-0.15900038
85	0x3e6b183d	0.22958465
86	0x3e916806	0.28399676
87	0x3ea08ece	0.3135895
88	0xbe2a7b17	-0.16648518
89	0xbca4abce	-0.020101454
90	0x3e0c9fbe	0.13732812
91	0xbe6759f1	-0.22592904
92	0x3e1ec8cd	0.15506287
93	0xbe4214b9	-0.18953218
94	0xbe03bc0b	-0.12864701
95	0x3dc64745	0.09681562
96	0xbe01bc30	-0.12669444
97	0x3d8f8bf7	0.07009118
98	0xbccc5a90	-0.024945527
99	0x3c82f751	0.01598707
100	0xbe33e712	-0.17568615
101	0x3da689e4	0.08131769
102	0x3f539f67	0.82665104
103	0xbea69351	-0.32534268
104	0x3df61a46	0.1201673
105	0xbf2b9712	-0.6702739
106	0x3e392fe0	0.18084669
107	0x3e54883f	0.20755099
108	0x3d011256	0.031511627
109	0xbdc5f4ae	-0.096658096
110	0x3e68497d	0.22684284
111	0xbe26d233	-0.16291122
112	0xbd70a47b	-0.05875061
113	0x3d9fdda8	0.078059494
114	0x3da72903	0.08162119
115	0xbde5ae48	-0.11214882
116	0x3e1c2b73	0.1525095
117	0xbe5db29b	-0.21650164
118	0xbe2835c5	-0.16426761
119	0xbe482f68	-0.19549334
120	0xbc8942ca	-0.01675548
121	0x3b96f9cf	0.004607416
122	0x3edc1b5d	0.42989627
123	0x3c22c8f2	0.009935604
124	0xbf4a3413	-0.7898571
125	0xbdc7a13d	-0.09747551
126	0xbcb93ea5	-0.022612879
127	0xbe9f0adb	-0.3106297
128	0x3cf43784	0.029811628
129	0xbe1977a0	-0.1498704
130	0xbe219704	-0.15780264
131	0xbdbe4cf2	-0.0929202
132	0xbdeac34d	-0.11463032
133	0x3d836567	0.06415825
134	0xbdd83baa	-0.10558255
135	0xbcb99611	-0.022654565
136	0x3b460e0c	0.0030220775
137	0x3e4169b9	0.18887986
138	0xbd18f8e9	-0.037346754
139	0xbd758a8c	-0.05994658
140	0x3e36b129	0.17841019
141	0x3de65430	0.11246526
142	0xbdd2abf9	-0.102867074
143	0xbcf54a25	-0.029942581
144	0xbc92bf00	-0.017913342
145	0xbc389a5a	-0.011267269
146	0xbdf6f738	-0.12058872
147	0xb9840fbb	-0.00025188722
148	0x3caa7db9	0.020811902
149	0xbb9cbf13	-0.00478352
150	0x3cd2e8bc	0.025745742
151	0xbc69e050	-0.014274672
152	0x3ca1f260	0.019768894
153	0x3cb47985	0.022030601
154	0x3c440cfe	0.011965988
155	0x3d49c7a8	0.049262673
156	0x3e460b45	0.19340236
157	0xbcd078ef	-0.02544829
158	0x3df6f79e	0.12058948
159	0xbb4d8192	-0.0031357748
160	0x3d24548e	0.0401197
161	0xbe221cc3	-0.15831284
162	0x3b8fd4b2	0.004389369
163	0x3e2cf8c6	0.16891775
164	0x3e25fbad	0.16209288
165	0xbc691bf0	-0.014227852
166	0xbcc2accb	-0.023764035
167	0xbe493a01	-0.19651033
168	0x3ddae89c	0.10688898
169	0xbe46e956	-0.19424948
170	0x3d28dcd0	0.04122621
171	0x3d92436c	0.07141766
172	0x3e08bdaa	0.13353601
173	0x3d146f15	0.03623875
174	0x3d840037	0.064453535
175	0x3d40af80	0.04704237
176	0x3d9b7555	0.07590739
177	0xbdf0bbb0	-0.117545485
178	0x3db2c068	0.08728105
179	0x3c0bed77	0.008540503
180	0xbd816ae7	-0.06319218
181	0x3df281dc	0.11841175
182	0xbc019581	-0.00790918
183	0x3d02a14e	0.031892113
184	0x3d5212f5	0.05128761
185	0x3e6d95b9	0.23201646
186	0xbe07a7e3	-0.13247637
187	0xbd341ed6	-0.04397472
188	0x3d9be1af	0.07611405
189	0xbd33ce67	-0.043898012
190	0xbda7ec99	-0.08199424
191	0x3cfdbfae	0.030975189
192	0xbd448221	-0.047975663
193	0xba77c63c	-0.00094518415
194	0x3d8f8dac	0.07009444
195	0x3decc61d	0.115612246
196	0xbcc77196	-0.024346154
197	0x3ce86aa6	0.028371166
198	0xbe6f6c14	-0.23381072
199	0xbbc56593	-0.0060240715
200	0xbd9e3a48	-0.0772596
201	0x3de2efc5	0.11080889
202	0x3d653523	0.05595888
203	0xbd71e3d7	-0.059055176
204	0xbd97c393	-0.0741035
205	0xbd49f0cb	-0.049301904
206	0xbe14399c	-0.14475101
207	0xbe0eb4f3	-0.13936214
208	0x3e0bb547	0.1364337
209	0xbcd2cad0	-0.025731474
210	0x3e7c5587	0.24642001
211	0x3c243edb	0.010024752
212	0x3e396663	0.18105464
213	0xbe34c8a2	-0.1765466
214	0x3d23e342	0.04001165
215	0x3db447c7	0.08802753
216	0xba6d502f	-0.0009052781
217	0x3c77664c	0.015100073
218	0x3dd68d5b	0.1047618
219	0x3d7fdddf	0.062467452
220	0x3db3eb93	0.087851666
221	0x3d01be44	0.031675592
222	0xbdc440d3	-0.09582677
223	0x3d1fdca0	0.039028764
224	0xbe34d03e	-0.17657563
225	0xbdb02522	-0.086008325
226	0x3cb2b81d	0.021816308
227	0xbe173134	-0.14764863
228	0xbe652b8b	-0.22379892
229	0x3d335d06	0.043789886
230	0xbd079be7	-0.033107664
231	0xbdff95ba	-0.1247973
232	0x3d784719	0.06061468
233	0xbe36bffa	-0.17846671
234	0xbdd01914	-0.10161033
235	0x3e54cb3b	0.20780651
236	0xbd9292a8	-0.07156879
237	0xbdda402e	-0.106567726
238	0xbdbe2afb	-0.092855416
239	0xbe3bb0c7	-0.18329154
240	0xbdba3cc7	-0.090936236
241	0x3d275a4c	0.0408576
242	0x3c04861f	0.008088618
243	0x3dc7ea51	0.09761489
244	0xbd091362	-0.03346575
245	0x3d8a1825	0.067428865
246	0x3daf19d6	0.0854985
247	0xbe2a39ec	-0.16623658
248	0xbdea98bf	-0.11454915
249	0xbcf36a98	-0.029713914
250	0x3dcb7089	0.09933574
251	0xbd0dc6ed	-0.03461354
252	0x3e71cbe2	0.23612931
253	0x3e430295	0.19043954
254	0x3e31993d	0.17343612
255	0xbe12037f	-0.14259146

full_connect1/MatMul_bias f4 [32]
0	0x3e82a9b5	0.255201
1	0x39db2f35	0.00041806107
2	0x3d892f12	0.06698431
3	0x3e0dfdd0	0.13866353
4	0xbd163a85	-0.036676902
5	0xbe8cbda1	-0.27488425
6	0xbacf92cd	-0.0015836597
7	0x3d90c647	0.070690684
8	0x3e569a5d	0.20957322
9	0x3ef76327	0.48317835
10	0xbddbe167	-0.107363515
11	0xbd04669c	-0.03232442
12	0x3efd8d8e	0.4952206
13	0xbdf5c453	-0.120003365
14	0x3e58d133	0.21173553
15	0xbd750799	-0.0598217
16	0x3e94872a	0.29009372
17	0xbe1adc90	-0.151232
18	0x3ee77e7d	0.4521369
19	0xbca7fda4	-0.020506687
20	0xbe3ab98b	-0.18234842
21	0xbe127eff	-0.14306258
22	0xbd8811e4	-0.06644037
23	0x3eae7258	0.34071612
24	0x3d9e2a4c	0.07722911
25	0x3d3fe927	0.04685321
26	0x3dcecff1	0.100982554
27	0x3d140f2a	0.036147274
28	0xbdf48259	-0.11938924
29	0x3e6cc716	0.2312282
30	0x3e99e6d6	0.30058926
31	0x3dad126c	0.08450779
