prebuilts/samsung/a73xqxx/system/saiv/textrecognition/stride/mSRTL_rfn_1024_1024_float16.tflite (tflite, 475356 bytes, 153 tensors)

model_168/tf.math.add/Add/y f2 [32]
00000000: 74b2 40b4 41b4 9eb3 a9af b2a4 4cb3 3da1
00000010: 0fa0 e9b3 3634 8dac 0fb2 5331 0e38 f832
00000020: 8fb6 8c34 a9b5 5936 f4a3 1db3 3f22 2637
00000030: 83b5 462d 9230 c0b4 ac24 7fb3 5ea1 e836
-0.2017 -0.2656 -0.2659 -0.238 -0.1197 -0.01834 -0.228 -0.01023
-0.00793 -0.2472 0.2632 -0.0711 -0.1893 0.1664 0.507 0.2178
-0.41 0.2842 -0.3538 0.3967 -0.01553 -0.2223 0.0122 0.4468
-0.3445 0.0824 0.1428 -0.2969 0.01825 -0.2343 -0.01048 0.4316

model_168/tf.math.add_32/Add/y f2 [128]
00000000: 7eb2 80b1 0d32 2534 d4b1 52a9 1028 94b6
00000010: 1fb6 9ab3 bab1 9d37 daae f6b4 a6b5 84ac
00000020: 142e 8ab0 3a29 702b b5b6 1f34 d0ae b21d
00000030: d2ba 8730 ceb8 d0b4 3cb8 26b4 c4b8 ba39
00000040: 72b1 9cb2 feac aeb9 0329 a6ae 7ba1 0eaf
00000050: b1b8 beb7 5431 94b8 0cb5 4436 4d2c ef36
00000060: beaf a9b4 bbb2 992c 80ac 0fa1 94b7 00b6
00000070: ffb0 beb2 06b4 a8af b6b8 fdb1 ad28 71ba
00000080: 6838 7b2a 922d 0d2e 22b8 64b3 2437 3eb2
00000090: 1ea4 a038 2ab8 42b8 e6b2 2db1 7a2f 1eb6
000000a0: 7a33 3bb6 6ead aaad 4d30 d921 392d 6cb6
000000b0: 0430 9630 abbb 0fb6 ea2b 97b2 c7ad ca28
000000c0: f5b2 2331 3ab3 66ad 15b8 1bb8 0db1 73b6
000000d0: 04b8 f8b9 acb8 92b9 d8b8 8abb fd9d 5139
000000e0: c42f c8b5 91b7 afb6 b1b0 47b9 fdb3 34b5
000000f0: 47b7 87a8 d5ad 07b7 a52f 3338 b8b4 c1b0
-0.2029 -0.1719 0.1891 0.259 -0.1821 -0.04156 0.03174 -0.4111
-0.3826 -0.2375 -0.179 0.4758 -0.10706 -0.31 -0.353 -0.07056
0.095 -0.1418 0.04083 0.0581 -0.4192 0.2576 -0.10645 0.00556
-0.8525 0.1415 -0.6006 -0.3008 -0.5293 -0.2593 -0.5957 0.716
-0.1702 -0.2065 -0.078 -0.71 0.03915 -0.1039 -0.010704 -0.1102
-0.5864 -0.484 0.1665 -0.5723 -0.3154 0.3916 0.0672 0.4333
-0.121 -0.2913 -0.2103 0.07184 -0.0703 -0.00988 -0.4736 -0.375
-0.1561 -0.2107 -0.2515 -0.1196 -0.589 -0.1871 0.03653 -0.805
0.551 0.05063 0.08704 0.09454 -0.5166 -0.231 0.4463 -0.1951
-0.01608 0.578 -0.5205 -0.532 -0.2156 -0.1617 0.1168 -0.3823
0.2336 -0.3894 -0.08484 -0.0885 0.1344 0.01142 0.0816 -0.4014
0.1255 0.1433 -0.9585 -0.3787 0.06183 -0.2059 -0.0903 0.0374
-0.2174 0.1605 -0.2258 -0.08435 -0.5103 -0.513 -0.1578 -0.403
-0.502 -0.746 -0.584 -0.6963 -0.6055 -0.9424 -0.005848 0.6646
0.12134 -0.3613 -0.473 -0.4177 -0.1466 -0.6597 -0.2496 -0.3252
-0.4548 -0.03537 -0.0911 -0.4392 0.11945 0.525 -0.295 -0.1486

model_168/tf.math.add_33/Add/y f2 [64]
00000000: 6d40 7b41 21b0 503e 213f e53d d13f 9540
00000010: c140 2841 b43f ca3e 8040 f0ac 1440 043e
00000020: 413a c740 8c41 7640 6641 c340 233f 383f
00000030: b540 e23f 4e41 5440 5940 d240 ad40 9740
00000040: 4641 4240 ef40 723c 3341 6741 9d40 9b3e
00000050: e540 663f 4f3e b640 c541 753f f73f 8c40
00000060: 783e 303b b93e 1540 9840 f240 cd40 433f
00000070: cb40 bd3e 473f b43f 0941 b43f edab 8740
2.213 2.74 -0.129 1.578 1.782 1.474 1.954 2.291
2.377 2.578 1.926 1.697 2.25 -0.07715 2.04 1.504
0.7817 2.389 2.773 2.23 2.7 2.38 1.784 1.805
2.354 1.971 2.652 2.164 2.174 2.41 2.338 2.295
2.637 2.129 2.467 1.111 2.6 2.701 2.307 1.651
2.447 1.85 1.577 2.355 2.885 1.864 1.991 2.273
1.617 0.8984 1.681 2.041 2.297 2.473 2.4 1.815
2.396 1.685 1.819 1.926 2.518 1.926 -0.06192 2.264

model_168/tf.math.add_36/Add/y f2 [32]
00000000: 41b8 bb32 aab6 e4b7 f330 f1ad 51b6 8236
00000010: 20b5 d92e 8233 7834 66b7 8b31 8db8 42b8
00000020: 7ab4 c821 0935 acb7 86b5 5e2e 5e36 e23a
00000030: 1fb8 5b38 2932 8eb9 4b2b 272f c6b8 97b8
-0.5317 0.2103 -0.4165 -0.4932 0.1547 -0.09283 -0.3948 0.4067
-0.3203 0.107 0.2346 0.2793 -0.4624 0.1732 -0.569 -0.532
-0.2798 0.01129 0.3147 -0.4795 -0.3452 0.0995 0.398 0.8604
-0.515 0.5444 0.1925 -0.6943 0.05698 0.11176 -0.5967 -0.5737

model_168/tf.math.add_68/Add/y f2 [128]
00000000: 9fb8 712c db30 7e37 acb9 ceb8 00b7 a0b9
00000010: 06b1 9bb2 bf2c c4b4 beab 68ab 392e 5135
00000020: 8eb8 d3ae c3b9 4f30 59b8 b1ac 4dae d4b5
00000030: 16ac 6db0 58b5 74af b430 67b2 36b8 cdba
00000040: 0cb9 38bd cb24 a4b2 7eb8 75ad afaf 2f2f
00000050: 8028 84b6 fb35 e231 c8b3 c5b1 c529 2fba
00000060: aa38 452f 96b5 8b30 91bb 51bc 59b8 152d
00000070: 6c30 b433 06aa 1eb5 df31 e9b4 242e e8ac
00000080: b1b9 c1b8 b3ba 7db5 98b5 33bb 2b2c 40a5
00000090: ccb2 c4b2 ecba 5cb6 2337 bab2 47b0 82b6
000000a0: 0cb1 60b9 5daf 7b31 be2e 48b7 22aa 412b
000000b0: b132 7eba 2f33 30ae 79b8 26a0 6f37 95af
000000c0: aba2 c1b6 d92d 73b5 aab0 eaba 48b1 60b4
000000d0: 5eb8 78b4 73b8 9cb4 27b9 eab9 42b1 31b0
000000e0: 0ba6 f8b0 f835 bbb4 39b0 ee38 60b6 3eb8
000000f0: a4b5 a5b9 e694 3fb8 f7b0 412e 401f 78b5
-0.5776 0.0694 0.1517 0.4683 -0.709 -0.6006 -0.4375 -0.703
-0.157 -0.2064 0.07416 -0.2979 -0.0605 -0.05786 0.0972 0.3323
-0.5693 -0.1066 -0.72 0.1346 -0.5435 -0.0733 -0.09845 -0.3643
-0.06384 -0.1383 -0.334 -0.11646 0.147 -0.2001 -0.5264 -0.85
-0.631 -1.305 0.01872 -0.2075 -0.5615 -0.08527 -0.12006 0.11224
0.03516 -0.4072 0.3738 0.1838 -0.2432 -0.1803 0.04507 -0.773
0.583 0.1136 -0.349 0.142 -0.946 -1.079 -0.5435 0.0794
0.1382 0.2407 -0.04706 -0.3198 0.1835 -0.307 0.09595 -0.07666
-0.7114 -0.594 -0.8374 -0.343 -0.3496 -0.9 0.0651 -0.02051
-0.2124 -0.2114 -0.865 -0.3975 0.446 -0.2102 -0.1337 -0.4067
-0.1577 -0.672 -0.11505 0.1713 0.10535 -0.455 -0.0479 0.05667
0.2091 -0.8115 0.2245 -0.0967 -0.559 -0.0081 0.4646 -0.11847
-0.01302 -0.422 0.0914 -0.3406 -0.1458 -0.8643 -0.165 -0.2734
-0.546 -0.2793 -0.556 -0.288 -0.644 -0.7393 -0.1643 -0.131
-0.0236 -0.1553 0.373 -0.2957 -0.132 0.616 -0.3984 -0.5303
-0.3525 -0.7056 -0.001196 -0.531 -0.1552 0.0977 0.00708 -0.3418

model_168/tf.math.add_69/Add/y f2 [64]
00000000: 60bd d837 72b5 6ac1 7f35 e7b7 1138 57bd
00000010: f0bd 6dbd a73a 5238 fb35 be3a 623a e7b1
00000020: 28bb 083b 1cc1 ae2f 1fb3 08b9 40bf 29c0
00000030: ef36 ff3d bcba 9a3c 99b8 af35 06bd 7137
00000040: a0ba 50be 6a39 ab3c c839 1bb9 c53d de36
00000050: 32b5 22ba 0398 db2f 8b3d 14c0 aebc 4135
00000060: d3bd 1e3d dd37 ff3a efb8 8dbd 6835 c0be
00000070: 01a8 eb35 8538 3db8 9839 b83d 6db3 1dbf
-1.344 0.4902 -0.3403 -2.707 0.3435 -0.494 0.5083 -1.335
-1.484 -1.356 0.8315 0.54 0.3738 0.843 0.798 -0.1844
-0.8945 0.879 -2.555 0.12 -0.2225 -0.629 -1.8125 -2.08
0.4333 1.499 -0.842 1.15 -0.5747 0.3552 -1.256 0.465
-0.828 -1.578 0.677 1.167 0.7227 -0.638 1.442 0.4292
-0.3247 -0.7666 -0.001959 0.12274 1.386 -2.04 -1.17 0.3284
-1.456 1.279 0.4915 0.8745 -0.6167 -1.388 0.338 -1.6875
-0.03128 0.3699 0.565 -0.53 0.699 1.43 -0.232 -1.778

model_168/tf.math.add_72/Add/y f2 [32]
00000000: dd36 e734 ba30 7ab4 bab4 5cb5 5bb7 4faf
00000010: e9b4 5cb2 c634 a6b4 f42a 21b4 6aaa d3b4
00000020: 7c2a 0f30 cb34 6a21 50b4 2b31 97b5 7138
00000030: 3431 37b7 c236 e7b5 38b7 582c 75b5 1833
0.429 0.3064 0.1477 -0.2798 -0.2954 -0.335 -0.4597 -0.1142
-0.307 -0.1987 0.2983 -0.2905 0.05432 -0.258 -0.0501 -0.3015
0.05066 0.1268 0.2996 0.010574 -0.2695 0.1615 -0.3494 0.555
0.1626 -0.451 0.4224 -0.369 -0.4512 0.0679 -0.341 0.2217

model_168/tf.math.add_104/Add/y f2 [128]
00000000: 08b3 c1b5 64b4 1eb6 d6b2 0fb4 7b34 9eb5
00000010: 7db5 e1b1 3ab6 9ab5 4fb3 37b5 d133 68ae
00000020: 1db6 b8b2 63b2 02b4 11ac aeb0 0fb7 14b6
00000030: c1ad 5bb8 47b5 69b7 aab9 7ab7 d7b5 53b2
00000040: 99b5 44af 82b4 442e dbb4 57b7 0eb3 90b7
00000050: 61b3 16ac 86b7 4cb5 001e fc21 b9b5 efa8
00000060: d6b5 73b8 6bb8 9db0 3b34 fc24 34b4 7cb2
00000070: cda7 37b4 97b4 3db6 6ab3 cdb6 5cb4 a7ac
00000080: 0bb2 3833 ccb2 47b2 5b2c 8ab2 e9b3 5db6
00000090: d8b4 d934 08b5 a9b5 f6b3 12ae bcb4 fab5
000000a0: 2d32 11b5 33ad e2a9 99b0 ca21 f232 14ac
000000b0: e4a9 98b5 3734 96b5 a134 c7b5 b9b8 4fb7
000000c0: bcb3 9025 e4b4 bbb4 b7b4 deaf 9eb4 d2a8
000000d0: 58b2 bcb5 17ae 29bb e9b0 6ab7 a8b7 d41b
000000e0: cb32 841c 29b1 deb3 d72f eeb8 e9b2 09b4
000000f0: 9fa8 30a8 8ab5 632c 8bb6 a2b6 a5b8 fe34
-0.2197 -0.3596 -0.2744 -0.3823 -0.2136 -0.2537 0.28 -0.351
-0.343 -0.1837 -0.3892 -0.35 -0.2284 -0.326 0.2443 -0.1001
-0.382 -0.21 -0.1996 -0.2505 -0.06354 -0.1462 -0.4412 -0.38
-0.0899 -0.5444 -0.3298 -0.4631 -0.708 -0.4673 -0.365 -0.1976
-0.3499 -0.1135 -0.2817 0.0979 -0.3035 -0.4587 -0.2205 -0.4727
-0.2306 -0.06384 -0.4702 -0.331 0.00586 0.01169 -0.3577 -0.03854
-0.3647 -0.556 -0.5522 -0.1442 0.2644 0.01947 -0.2627 -0.2026
-0.03047 -0.2634 -0.2869 -0.39 -0.2317 -0.425 -0.2725 -0.0727
-0.1888 0.2256 -0.2124 -0.1962 0.06805 -0.2043 -0.2472 -0.3977
-0.3027 0.303 -0.3145 -0.3538 -0.2488 -0.09485 -0.296 -0.3735
0.193 -0.3167 -0.08124 -0.04596 -0.1437 0.01131 0.217 -0.0637
-0.04602 -0.3496 0.2634 -0.349 0.2893 -0.361 -0.5903 -0.4568
-0.2417 0.02173 -0.3057 -0.2957 -0.2947 -0.1229 -0.2886 -0.03766
-0.1982 -0.3584 -0.09515 -0.895 -0.1534 -0.4634 -0.4785 0.003822
0.2123 0.00441 -0.1613 -0.2458 0.1225 -0.616 -0.216 -0.2522
-0.0361 -0.0327 -0.3462 0.06854 -0.409 -0.4146 -0.5806 0.312

model_168/tf.math.add_105/Add/y f2 [64]
00000000: 96b1 b5b7 0136 4ab4 e7b1 5eb1 d1b0 3fba
00000010: fcb8 35ba a4ba 84b7 ac16 34b9 dbb0 d1b6
00000020: 0cb0 cfbc 3fb8 beb0 05b5 c032 cfbc 06b6
00000030: 22b7 96ba 4bb8 2cba 2dbb 7fb9 8eb7 2cb8
00000040: 17bc cab4 72b0 2534 4aae 2eb4 9634 0bb6
00000050: 7ba7 a1b7 f4b4 deb5 f0b5 ecad d031 feb8
00000060: e4b4 6ab8 a0ae 2fb7 08af bfba 74b8 47b7
00000070: 7db0 54b0 b0ac bfbc b327 02bc 95b8 98b5
-0.1746 -0.4817 0.3752 -0.268 -0.1844 -0.1677 -0.1505 -0.781
-0.623 -0.776 -0.83 -0.4697 0.001629 -0.6504 -0.1517 -0.426
-0.1265 -1.202 -0.531 -0.1482 -0.3137 0.2109 -1.202 -0.3765
-0.4458 -0.823 -0.5366 -0.7715 -0.897 -0.687 -0.4722 -0.5215
-1.022 -0.2993 -0.1389 0.259 -0.09827 -0.2612 0.2866 -0.3777
-0.02922 -0.4768 -0.3096 -0.3667 -0.371 -0.0925 0.1816 -0.624
-0.3057 -0.552 -0.1035 -0.449 -0.10986 -0.8433 -0.5566 -0.4548
-0.1403 -0.1353 -0.07324 -1.187 0.03008 -1.002 -0.5728 -0.3496

model_168/tf.linalg.matmul_1/MatMul1 f2 [32, 36]
00000000: 5928 d0a9 dd2e 12aa 090d 50ab 1234 b634
00000010: 9d2c 5fa8 41ac 422c 9d2e 6b21 75a4 89a4
00000020: 1fac 68ad 53a5 0a2f 85b1 88a2 562f 9bb2
00000030: 5fb3 fab3 68a5 6d24 4f33 4b2e 3daf 7f1e
00000040: bd2e 56b2 c8b9 b7b2 e7ab afa6 36af 1ba2
00000050: 50ad 90ac 59b1 acb4 17aa a530 0833 5c29
00000060: 722f 0131 db1f e728 1ca5 3a27 aa2f 85ad
00000070: 579d 12b1 8a2b 0cb5 a92d b834 f628 b09f
00000080: ad34 7fb0 7a2c 53a0 9730 292d 59ad 0aa8
00000090: 5092 922c b230 4b2c 922c eaae 5c33 36b2
000000a0: e4a9 6d2c 5630 02ae 4125 71a6 0a2b ac2c
000000b0: deaa 9c31 59a3 a4b1 262a f828 7da8 1f2a
000000c0: 832e 162e 81ac b69e a929 a3ae a9a9 61af
000000d0: 78ac 6f31 6c34 34b2 7230 4eb0 162f 22b1
000000e0: 5f2d 48a7 2db4 f12d 7630 c42f 2530 fe31
000000f0: 052a b1ae 402b 0235 2dae d915 d5ac c5a0
00000100: a1b1 08a6 3030 9126 31b0 6b2c 3eaa ab9c
00000110: 3dae 0b24 d3a6 562d d72f fab4 5931 2a18
00000120: 90b0 3ba6 212d 04b0 2e30 2fad 3026 863a
00000130: 0b27 5a2e 0bac b420 b091 2eb2 9d31 ef30
00000140: f1a8 0eaa 13b3 24b0 06b4 552d cfa5 782a
00000150: a0ae 9b31 7e2e 6824 f931 2bb2 c52d 07af
00000160: 2822 07ac 8e38 8037 46ad 2b21 9931 47ac
00000170: 182a 2926 c929 53b0 722a 6f2d 64ac 899d
00000180: 9d9a 6a32 4830 db27 2ea7 d3a1 88ac 6f30
00000190: 73b2 45ab 8b31 1a31 1a31 9abd 9c28 ae24
000001a0: 48b0 47b1 99ab 7f29 fe2b 1db1 b92f 6636
000001b0: 3930 56a5 2e2e a4b1 bb2e 922e 42b1 36b7
000001c0: af2a 77ac d330 a926 e8a5 dba8 2b2d 4eb1
000001d0: ed9c d2a4 1fb5 d930 5432 aba4 1930 0b2e
000001e0: d4b3 8338 f829 9026 eeac d3ac 4cae 9e2e
000001f0: c1a5 5c36 98b3 1d32 f92f 2eb0 7ab1 86ac
0.03397 -0.0454 0.10724 -0.04742 0.0003073 -0.05713 0.2544 0.2944
0.0721 -0.03415 -0.06647 0.0665 0.10333 0.01058 -0.01741 -0.01772
-0.0644 -0.0845 -0.0208 0.11 -0.1725 -0.01276 0.1146 -0.2064
-0.2303 -0.2493 -0.02112 0.01729 0.2284 0.0983 -0.1131 0.006344
0.1053 -0.198 -0.7227 -0.2098 -0.06174 -0.02611 -0.1127 -0.011925
-0.083 -0.0713 -0.1671 -0.292 -0.04758 0.1451 0.2197 0.04187
0.11633 0.1564 0.00767 0.0383 -0.01996 0.02823 0.11975 -0.08624
-0.005215 -0.1584 0.0589 -0.3154 0.08844 0.295 0.03876 -0.007507
0.2922 -0.1405 0.06995 -0.008446 0.1434 0.0806 -0.08356 -0.03156
-0.0007706 0.0714 0.1467 0.0671 0.0714 -0.10803 0.23 -0.1941
-0.04602 0.06915 0.1355 -0.0939 0.02052 -0.02516 0.055 0.073
-0.05365 0.1753 -0.01435 -0.1763 0.04803 0.03882 -0.03506 0.04782
0.10175 0.0951 -0.0704 -0.006554 0.04422 -0.1037 -0.04422 -0.1153
-0.0698 0.1698 0.2764 -0.1938 0.1389 -0.1345 0.1107 -0.1604
0.0839 -0.02844 -0.261 0.09283 0.1394 0.12134 0.1295 0.1873
0.04703 -0.10455 0.05664 0.313 -0.0965 0.001428 -0.0755 -0.009315
-0.1759 -0.02356 0.1309 0.02565 -0.131 0.06903 -0.04877 -0.00456
-0.0975 0.0158 -0.02666 0.0834 0.1225 -0.311 0.1671 0.002033
-0.1426 -0.02434 0.08014 -0.1255 0.1306 -0.081 0.02417 0.8154
0.02751 0.09924 -0.0632 0.009186 -0.0006943 -0.1931 0.1754 0.1542
-0.0386 -0.0473 -0.2211 -0.1294 -0.2515 0.0833 -0.02269 0.05054
-0.1035 0.1752 0.10144 0.01721 0.1866 -0.1927 0.09015 -0.1098
0.012024 -0.0629 0.5693 0.4688 -0.0824 0.01009 0.1749 -0.06683
0.0476 0.02406 0.0452 -0.1351 0.05035 0.0849 -0.0686 -0.005405
-0.00323 0.2004 0.1338 0.03069 -0.02805 -0.011375 -0.0708 0.1385
-0.2015 -0.0568 0.1732 0.1594 0.1594 -1.4 0.036 0.01828
-0.1338 -0.1649 -0.05936 0.04294 0.06244 -0.1598 0.12067 0.4
0.132 -0.02084 0.09656 -0.1763 0.10516 0.10266 -0.1643 -0.4507
0.05222 -0.06976 0.1508 0.02602 -0.02307 -0.03793 0.08075 -0.1658
-0.00481 -0.01883 -0.32 0.1515 0.1978 -0.01823 0.128 0.0944
-0.2446 0.564 0.04663 0.02563 -0.077 -0.0754 -0.0984 0.1034
-0.02248 0.3975 -0.2373 0.191 0.1246 -0.1306 -0.1711 -0.0707

model_168/tf.linalg.matmul_3/MatMul f2 [96, 32]
00000000: 06a5 0c36 44a7 8bb5 0f2b 90b5 cab9 9c28
00000010: 3029 a9a9 e3b1 8bb3 5031 ef24 fe34 19b6
00000020: feb3 7e32 33b1 55ac 2524 fcb3 de38 0638
00000030: f8ab d5a3 6d35 ba33 ddac 02b8 dfab 4c39
00000040: 88b5 6d2a 3330 47b8 57ac 0234 9731 23b4
00000050: 9a34 7b2d dfae daa0 083a 6ab8 acb1 e335
00000060: 21b7 9eb6 c136 6a32 7fb2 18ad 4b2c 3ab5
00000070: 1d36 0e33 a72e 5738 2f37 2b38 b629 eab3
00000080: c0b2 802f 9833 13b6 3533 adb7 3b34 2a35
00000090: 70b8 6e34 ca35 60aa dd3c 5db0 7fa9 eeb4
000000a0: 94b2 b137 e2b6 4fb5 67bb fbb1 eab4 1628
000000b0: fcb4 3c38 3b35 d925 8130 ef25 932d 91b5
000000c0: 0eb4 3e2b 4333 dfb4 39b1 8a29 fd39 792c
000000d0: 3435 e0b8 2ab0 4136 2fa0 e839 3a35 4e35
000000e0: cab2 5d33 f835 37a4 4b33 87a9 3130 75af
000000f0: dca0 68b2 efa8 0519 b1b1 fcb1 3131 2fa4
00000100: 79b6 b6b6 7f29 f239 1533 2d33 49aa 3f32
00000110: 2ab4 3530 1d34 b22c 02b2 a3b2 782f 27b2
00000120: 8a35 9332 cdab a430 2ea7 9ea9 2c33 7321
00000130: a031 b832 8eb2 9130 c42f beb6 f6a0 f4b8
00000140: 28b8 4e36 81b6 7b31 cab3 c323 3f29 1736
00000150: 5733 ac35 802d 4538 d0b4 ccb8 3bb5 9734
00000160: 4eb6 6422 0b32 f3b2 f8b1 a92e cab5 30a7
00000170: f9b7 6faa 12b0 8733 b6b9 3528 2f2e 1dad
00000180: bb2d bfb7 e038 63ac 14b9 c836 dbac 3a3a
00000190: df2e 56b0 5a33 82b5 db36 459d f034 b037
000001a0: 32b8 c4b7 78b1 7533 8f30 b6b4 e1b2 4d32
000001b0: 64b6 13af c034 192d 6c29 7eb4 ee31 6438
000001c0: ad36 4f32 7533 11b2 44aa 9aa6 44b5 8c32
000001d0: 3db1 293a b7ad ea33 c1b1 d4b2 3633 64b2
000001e0: d12e e2b4 d7b3 1bb0 d62d 7ab1 05ac deb6
000001f0: b7b5 1b32 f6b4 f533 f932 0831 ec31 2536
-0.01962 0.378 -0.02838 -0.3464 0.05515 -0.3477 -0.7236 0.036
0.04053 -0.04422 -0.184 -0.2357 0.166 0.01927 0.312 -0.381
-0.2498 0.2029 -0.1625 -0.0677 0.01619 -0.2495 0.6084 0.503
-0.06226 -0.0153 0.339 0.2415 -0.076 -0.501 -0.0615 0.662
-0.3457 0.0502 0.1312 -0.5347 -0.0678 0.2505 0.1747 -0.2585
0.2876 0.08563 -0.10736 -0.009476 0.754 -0.552 -0.1772 0.368
-0.4456 -0.4136 0.422 0.2004 -0.203 -0.0796 0.0671 -0.3267
0.382 0.2205 0.10394 0.5425 0.449 0.521 0.04462 -0.2473
-0.2109 0.1172 0.2373 -0.3796 0.2252 -0.4797 0.2644 0.3228
-0.5547 0.2769 0.3618 -0.0498 1.216 -0.1364 -0.04294 -0.308
-0.2056 0.4807 -0.4302 -0.3318 -0.9253 -0.1869 -0.3071 0.03192
-0.3115 0.5293 0.327 0.02284 0.1407 0.02318 0.0871 -0.348
-0.2534 0.05658 0.2269 -0.3044 -0.1632 0.04327 0.7485 0.0699
0.3252 -0.6094 -0.1301 0.3909 -0.00817 0.7383 0.3267 0.3315
-0.2122 0.2301 0.373 -0.01646 0.2279 -0.04318 0.131 -0.1165
-0.00949 -0.2002 -0.03854 0.00245 -0.1779 -0.187 0.1622 -0.01634
-0.4045 -0.4194 0.04294 0.743 0.2213 0.2242 -0.0491 0.1952
-0.2603 0.1315 0.257 0.07336 -0.1877 -0.2074 0.1167 -0.1923
0.3462 0.2054 -0.06094 0.145 -0.02805 -0.04388 0.2241 0.01064
0.1758 0.21 -0.2048 0.1427 0.12134 -0.4214 -0.00969 -0.619
-0.5195 0.394 -0.4065 0.1713 -0.2434 0.01516 0.041 0.3806
0.2294 0.3545 0.08594 0.5337 -0.3008 -0.5996 -0.327 0.2869
-0.394 0.01248 0.1888 -0.2172 -0.1865 0.10406 -0.3618 -0.02808
-0.4983 -0.05026 -0.1272 0.2352 -0.714 0.03287 0.0966 -0.0799
0.08954 -0.4841 0.6094 -0.06854 -0.635 0.4238 -0.07587 0.7783
0.10736 -0.1355 0.2297 -0.3442 0.4285 -0.005146 0.3086 0.4805
-0.5244 -0.4854 -0.1709 0.233 0.1425 -0.2944 -0.215 0.1969
-0.3994 -0.11053 0.2969 0.07965 0.04236 -0.2808 0.1853 0.549
0.4172 0.1971 0.233 -0.1896 -0.04895 -0.02579 -0.329 0.2046
-0.1637 0.77 -0.0893 0.2473 -0.1798 -0.2134 0.2253 -0.1997
0.1065 -0.3052 -0.245 -0.1283 0.0912 -0.1711 -0.0628 -0.4292
-0.3572 0.1908 -0.31 0.2487 0.2179 0.1572 0.185 0.384

model_168/tf.linalg.matmul_5/MatMul f2 [32, 32]
00000000: d934 8e2d 2b34 f834 952a e035 e731 f2b1
00000010: 14b5 73b1 fdb3 0933 8e2d c5b5 5c35 3a37
00000020: 24b4 6236 ec36 7e34 a8b4 fdb0 95b4 64b4
00000030: bcb6 b135 9a36 1a35 5fa9 27b8 742d 95ac
00000040: 4b9c 2cb6 592a 5a30 64a3 a3b0 352d 9d34
00000050: 5da6 99b4 222e b216 1f31 5c35 87ab b326
00000060: e1b3 1430 3236 e1a8 172d 7cab 3c35 40a8
00000070: 5c28 2a31 5b37 1432 b7ad 18b8 7134 12a5
00000080: 7cb1 0633 3230 fbb5 ba2c ec31 5ead c2b0
00000090: c6a9 0335 6db0 fe28 8626 33b3 aeb5 5eb1
000000a0: b835 c4ae 75b6 b22c 1cad fdae b6b6 3c34
000000b0: d3ac 5138 2437 89b8 6cb2 f736 e937 1cac
000000c0: 98b4 f0b4 2db1 8a96 35b1 5cb3 e7b2 d3b5
000000d0: 63b0 8f9d 3fb8 db1e 4838 f136 69b5 e1b5
000000e0: 222a 7c2e 0731 bcb2 b62a 05b0 4f36 bb34
000000f0: 1ea3 75b2 9933 452c 00b0 05b5 af31 64b8
00000100: 382c 552d 2730 ccb0 63b2 8e2d 38ab 87aa
00000110: 1924 56b5 b32b 392d 8629 ddae 7931 d2a5
00000120: 07ae acbb 4a36 03b9 8eb8 61a7 ffb4 2ba2
00000130: 853c 3833 29b2 2334 06af 9cae 24b5 da28
00000140: 4a2c c729 5c2b 7b31 ddb0 4aa6 d5b5 043a
00000150: fe20 76af dfb0 bf27 38ab b0a6 6aa7 56b0
00000160: b420 ccb6 092c 35b4 d62e 5d30 75ad faa5
00000170: ee30 9dae 6d2c eca4 1524 40b3 2f2d aa2a
00000180: 0629 4136 26b1 34b3 13b2 8d2f 34b1 a932
00000190: d0aa 0cad 00b5 132d 62b2 b9b6 5436 e6af
000001a0: 96b4 e32c 8eaf d133 3232 8c31 5fb9 7db1
000001b0: df2e 692c 4234 4631 7831 4ab9 2836 802c
000001c0: 1835 7b32 fa2c deb4 39ae 25b8 0423 4d2c
000001d0: 97b6 8725 57b2 872f 1cb2 23ae faaf b2b0
000001e0: f5b5 e9a6 ae35 8d31 28b5 b9b4 05b1 3934
000001f0: 8bb6 612e 7d34 38af b5ad beb4 4fac 50ac
0.303 0.0868 0.2605 0.3105 0.05142 0.3672 0.1844 -0.1858
-0.3174 -0.1703 -0.2496 0.2198 0.0868 -0.3606 0.335 0.4517
-0.2588 0.399 0.4326 0.2808 -0.291 -0.1559 -0.2864 -0.2744
-0.421 0.3557 0.4126 0.3188 -0.04196 -0.519 0.0852 -0.0716
-0.004192 -0.3857 0.0496 0.136 -0.014435 -0.1449 0.08136 0.2883
-0.02486 -0.2874 0.0958 0.001635 0.16 0.335 -0.0588 0.02617
-0.2462 0.1274 0.3872 -0.03812 0.0795 -0.05847 0.3271 -0.0332
0.03406 0.1614 0.4597 0.19 -0.0893 -0.5117 0.2776 -0.0198
-0.1714 0.2195 0.1311 -0.3738 0.07385 0.185 -0.08386 -0.1487
-0.0451 0.3132 -0.1383 0.039 0.02548 -0.225 -0.355 -0.1677
0.3574 -0.1057 -0.4036 0.07336 -0.07983 -0.1092 -0.4194 0.2646
-0.0754 0.5396 0.4463 -0.567 -0.2007 0.4353 0.4944 -0.0642
-0.287 -0.3086 -0.1617 -0.001596 -0.1627 -0.23 -0.2157 -0.364
-0.1371 -0.00543 -0.531 0.006695 0.535 0.4338 -0.3381 -0.3674
0.0479 0.1013 0.1571 -0.2104 0.05243 -0.1256 0.3943 0.2957
-0.0139 -0.2018 0.2374 0.0667 -0.125 -0.3137 0.1776 -0.549
0.0659 0.0833 0.1298 -0.1499 -0.1996 0.0868 -0.0564 -0.051
0.016 -0.3335 0.06015 0.0816 0.04315 -0.10724 0.171 -0.02274
-0.0942 -0.959 0.393 -0.6265 -0.5693 -0.02882 -0.3123 -0.01205
1.13 0.2256 -0.1925 0.2585 -0.10974 -0.1033 -0.3213 0.0379
0.067 0.04514 0.0575 0.1713 -0.152 -0.02457 -0.3645 0.752
0.00975 -0.1166 -0.1522 0.03026 -0.0564 -0.02612 -0.02896 -0.1355
0.009186 -0.4248 0.06305 -0.263 0.1068 0.1364 -0.08527 -0.02335
0.154 -0.10333 0.06915 -0.01923 0.01595 -0.2266 0.081 0.05206
0.03925 0.3909 -0.1609 -0.2251 -0.1898 0.118 -0.1626 0.2081
-0.05322 -0.07886 -0.3125 0.0793 -0.1995 -0.4202 0.3955 -0.1234
-0.2866 0.07635 -0.11804 0.2443 0.1936 0.1733 -0.6714 -0.1715
0.10736 0.0689 0.266 0.1648 0.1709 -0.661 0.3848 0.0703
0.3184 0.2025 0.07776 -0.3042 -0.0972 -0.518 0.0137 0.0672
-0.4119 0.02159 -0.1981 0.1176 -0.1909 -0.0959 -0.12463 -0.1467
-0.3723 -0.027 0.355 0.1735 -0.3223 -0.2952 -0.1569 0.264
-0.409 0.0997 0.2805 -0.1128 -0.0892 -0.2964 -0.0673 -0.0674

model_168/tf.linalg.matmul_7/MatMul f2 [32, 32]
00000000: faaf 8ab0 6f38 b72d 2e34 3231 71b6 26a9
00000010: 11b6 54b5 52b4 5a25 acb4 a333 912f fd2f
00000020: 1f1d 172b 79b1 df28 5daa 34b3 e538 b12c
00000030: d728 75af d0ab 0cb0 26b0 08b0 aab5 112e
00000040: b0b6 8b29 d025 99b4 95a3 6030 db2e fcae
00000050: 22b9 2733 1cb0 6db3 9625 462d 54ba 99b4
00000060: 1232 0e31 00b5 b2b3 1f2f 0aa8 1536 09ae
00000070: eb35 aa9c 12b9 6dba e9b9 4dba 2134 9cb6
00000080: 37b1 3f98 5434 a89d 05b6 812b 022f 582a
00000090: 59b8 92b4 99b2 cbaf 15b5 4d35 ef2e 322d
000000a0: 3cb7 8a26 ba2d 9fa8 5e34 dfb3 b92c f1b2
000000b0: 61a4 5d27 d1b5 25b5 4db8 2531 47bb fbb1
000000c0: 6130 03b2 312d 1f33 70b0 a5ae 86b1 17b6
000000d0: 9eb7 4e34 6db9 272f c0b5 78ae 3b33 77b1
000000e0: 4c2c 353a 60b4 49b1 6837 aa28 de2f 8530
000000f0: bcb2 01b8 de34 2f36 2c34 3c32 df9e 7ab8
00000100: 50af 432c 8c96 fc31 0929 0bab b237 9e34
00000110: 2a34 6cb1 a72e 8e22 e3a6 bdb4 cfb1 07b1
00000120: 312d 3630 f131 4db1 9a97 6e3a 6fad 522d
00000130: 80ad f12c ee25 deb4 0c35 0e3c a62b 98b5
00000140: 7e2f b932 6dbe b9aa 072c eea8 f1af 07b4
00000150: a832 1534 7731 dcaf bfab 523a f9b6 46b3
00000160: ad28 1932 fdb4 3d34 49b0 19b1 d2bc 1baf
00000170: 5331 4731 811e d8bc e235 f7b0 c928 4f34
00000180: 31b3 f42d 0333 9cad 922a cbb1 5f2e 2034
00000190: 9cb1 fda9 1e33 5eb3 aa38 9331 8834 7fb5
000001a0: 3cb5 88b9 60ae 34b6 b6a7 9e2d 0333 9eb6
000001b0: 42b4 bf32 5730 2f38 11b1 a4b2 1bb0 d134
000001c0: 7c35 4d30 9f37 9631 5933 20ad 6b2d cbab
000001d0: 4eb0 f625 9533 1bb0 9fb4 5130 d1b3 319d
000001e0: 95b4 f1b3 02ae 71ac d1b2 b031 6d37 70b1
000001f0: 01b0 bc34 3cb1 a7b5 6fb5 dfb5 64b5 b630
-0.12463 -0.1418 0.554 0.0893 0.2612 0.1624 -0.4026 -0.04022
-0.3792 -0.333 -0.27 0.0209 -0.292 0.2386 0.1182 0.1248
0.005 0.0554 -0.171 0.03806 -0.0497 -0.2251 0.612 0.0733
0.0378 -0.1165 -0.06104 -0.1265 -0.1296 -0.126 -0.354 0.0948
-0.418 0.0433 0.0227 -0.2874 -0.01481 0.1367 0.1071 -0.10913
-0.6416 0.2235 -0.1284 -0.232 0.02182 0.0824 -0.791 -0.2874
0.1897 0.158 -0.3125 -0.2405 0.11127 -0.03156 0.3801 -0.0943
0.3699 -0.004555 -0.634 -0.803 -0.739 -0.7876 0.258 -0.413
-0.163 -0.002073 0.2705 -0.005524 -0.3762 0.05862 0.1095 0.04956
-0.5435 -0.2856 -0.2062 -0.12177 -0.3176 0.3313 0.10834 0.0812
-0.4521 0.02554 0.0895 -0.0361 0.273 -0.246 0.0738 -0.2169
-0.0171 0.02876 -0.3635 -0.3215 -0.5376 0.1608 -0.9097 -0.1869
0.1368 -0.1879 0.0811 0.2225 -0.1387 -0.1038 -0.1726 -0.3806
-0.476 0.269 -0.678 0.11176 -0.3594 -0.1011 0.226 -0.1708
0.06714 0.776 -0.2734 -0.1652 0.463 0.03644 0.1229 0.1412
-0.2104 -0.5005 0.3042 0.3865 0.2607 0.1948 -0.00671 -0.5596
-0.11426 0.0666 -0.001598 0.187 0.03934 -0.05502 0.481 0.2886
0.2603 -0.1694 0.10394 0.0128 -0.0269 -0.2961 -0.1815 -0.1571
0.0811 0.1316 0.1857 -0.1656 -0.001856 0.8037 -0.0849 0.0831
-0.08594 0.0772 0.02316 -0.3042 0.3154 1.014 0.05975 -0.3496
0.11707 0.2101 -1.606 -0.05252 0.0629 -0.0385 -0.1241 -0.2517
0.208 0.2551 0.1708 -0.1228 -0.06052 0.79 -0.4358 -0.2273
0.03653 0.1906 -0.3118 0.265 -0.1339 -0.1593 -1.205 -0.111
0.1664 0.1649 0.00635 -1.211 0.3677 -0.1552 0.03738 0.2693
-0.2247 0.093 0.2191 -0.08765 0.05133 -0.181 0.09955 0.2578
-0.1753 -0.04678 0.2224 -0.2302 0.583 0.1742 0.2832 -0.3435
-0.3271 -0.6914 -0.0996 -0.3877 -0.03012 0.08777 0.2191 -0.4136
-0.266 0.2108 0.1356 0.523 -0.1583 -0.2075 -0.1283 0.301
0.3428 0.1344 0.4763 0.1746 0.2296 -0.0801 0.08466 -0.06088
-0.1345 0.02328 0.2369 -0.1283 -0.2888 0.1349 -0.2443 -0.00507
-0.2864 -0.2482 -0.0939 -0.0694 -0.213 0.1777 0.464 -0.1699
-0.1251 0.296 -0.1636 -0.3533 -0.3396 -0.367 -0.337 0.1472

model_168/tf.linalg.matmul_9/MatMul f2 [32, 32]
00000000: cdb5 0936 512e a6b2 3830 c238 abad c335
00000010: 17b4 c7b0 67b8 b0aa ec32 e6b0 9bb5 f3b9
00000020: b32b 8bb2 80ab 62aa 4fb2 0234 3833 f236
00000030: 4c24 8aa4 fc30 4ab2 b630 73b0 3130 c3b9
00000040: d135 772b f0b1 572b 4739 0dad 3c38 b6b8
00000050: 22b8 472f 89ae 3a31 15a2 6a35 13ab 0eb5
00000060: 6336 77b4 362c 82ad 6b34 5a35 3d35 31b9
00000070: 172c 8130 8ead 56b5 b430 eaaf 71b5 20a5
00000080: 92b5 5e37 fc31 b332 43ba 5d2e b1b7 bba7
00000090: f93b 5533 85b6 a5b4 4ca2 6837 6131 49b1
000000a0: 45b0 bcb8 cf1c c837 4833 2737 9a25 2237
000000b0: 9b33 56b6 17b7 5cb8 0aa6 1e34 4cad bbaa
000000c0: 40b1 df36 3e31 ec34 2fa8 af37 942c f2b2
000000d0: d9af 0330 27b0 64b7 fab4 27ae 28b5 77b8
000000e0: 0cb5 1135 7138 c031 2d31 9cb5 2838 4729
000000f0: 4924 c7b9 2ab5 df35 85b7 be38 73b7 1b34
00000100: e8a6 74aa c3ac f1b8 b720 a236 d939 85b4
00000110: 4934 d837 8ca6 a3b0 07b9 c738 00b2 3227
00000120: 3a38 7ab3 fd36 12b3 fcb1 a32e 8b35 ee9c
00000130: 5cb5 6130 79b9 8cb1 feb3 3829 aeb1 b934
00000140: b4a5 593a 0a36 a2b4 63b4 9b2c 44ae f033
00000150: 2e34 dc39 68ae 79ba 8db0 d5b4 4e37 33b0
00000160: 74ad 812f eeb1 1bb3 c5b7 93a4 bd33 31b3
00000170: f02c 2aaf fcbc af2e 62b6 29b0 6ab8 4e38
00000180: 3632 b4b8 4ab8 0430 c6b4 8831 ed32 ef2f
00000190: bf28 0638 65ac a12e 76ad 2636 6cb5 1635
000001a0: 0bb0 5f32 4b33 5a38 2eb6 f8b6 84ae 7c3a
000001b0: b5ac 082e 53b0 e837 c6ba 56b4 2c2c 1729
000001c0: 90b4 4d2e ad2c a128 632a 8b2e f133 34af
000001d0: b12e 742f ac31 7935 74b1 cdb6 162e 44a9
000001e0: c5b4 1e3a 7634 8db6 1130 b6ba 40b4 e0b2
000001f0: feae afac 4f31 ef3a f635 13ad e92e ae31
-0.3625 0.3772 0.0987 -0.2078 0.1318 0.5947 -0.08856 0.36
-0.2556 -0.1493 -0.5503 -0.05225 0.2163 -0.1531 -0.3503 -0.7437
0.06015 -0.2045 -0.0586 -0.04987 -0.1971 0.2505 0.2256 0.434
0.01678 -0.01773 0.1558 -0.1965 0.1472 -0.139 0.131 -0.72
0.3635 0.05832 -0.1855 0.05734 0.6597 -0.0789 0.5293 -0.589
-0.5166 0.1137 -0.1021 0.1633 -0.01188 0.3384 -0.05527 -0.316
0.3992 -0.279 0.0658 -0.08606 0.2761 0.3345 0.3274 -0.649
0.0639 0.1407 -0.0868 -0.3335 0.147 -0.12366 -0.34 -0.02002
-0.3481 0.4604 0.187 0.2094 -0.7827 0.0994 -0.4807 -0.0302
0.9966 0.2291 -0.4075 -0.2903 -0.0123 0.463 0.1681 -0.1652
-0.1334 -0.592 0.004696 0.4863 0.2275 0.447 0.02188 0.4458
0.2377 -0.396 -0.443 -0.545 -0.02359 0.2573 -0.08276 -0.05258
-0.1641 0.4294 0.1638 0.3076 -0.03268 0.4802 0.07153 -0.217
-0.1226 0.1254 -0.1298 -0.462 -0.311 -0.0961 -0.3223 -0.558
-0.3154 0.3167 0.555 0.1797 0.1617 -0.3506 0.5195 0.04123
0.01674 -0.722 -0.3228 0.367 -0.47 0.593 -0.4656 0.2566
-0.02698 -0.0504 -0.0744 -0.6177 0.00921 0.4146 0.731 -0.2825
0.2678 0.4902 -0.02557 -0.1449 -0.6284 0.597 -0.1875 0.0281
0.5283 -0.2336 0.4368 -0.221 -0.187 0.1037 0.3464 -0.004814
-0.335 0.1368 -0.684 -0.1733 -0.2498 0.04077 -0.1775 0.2952
-0.02228 0.7935 0.3774 -0.2896 -0.2742 0.07196 -0.0979 0.248
0.2612 0.7324 -0.1001 -0.809 -0.1422 -0.302 0.4565 -0.1312
-0.0852 0.11725 -0.1853 -0.222 -0.4856 -0.01787 0.2418 -0.2247
0.07715 -0.11194 -1.246 0.10443 -0.399 -0.13 -0.552 0.538
0.1941 -0.588 -0.536 0.1255 -0.2983 0.1729 0.2164 0.12396
0.03708 0.503 -0.06866 0.1036 -0.0853 0.3843 -0.3389 0.3179
-0.1263 0.1991 0.2279 0.544 -0.3862 -0.4355 -0.1018 0.8105
-0.07355 0.09424 -0.1351 0.4941 -0.8467 -0.271 0.0652 0.03976
-0.2852 0.09845 0.07306 0.03616 0.0499 0.10223 0.2482 -0.11255
0.10455 0.11646 0.1772 0.342 -0.1704 -0.425 0.0951 -0.04114
-0.298 0.7646 0.2788 -0.4094 0.1271 -0.839 -0.2656 -0.2148
-0.10925 -0.0732 0.1659 0.8667 0.3726 -0.0793 0.108 0.1775

model_168/tf.linalg.matmul_16/MatMul f2 [128, 32]
00000000: 91bb 3426 64ae 26aa 0134 f8bb 8f36 66b8
00000010: b535 d8ae 6a35 02a8 24b3 0bb7 52ae deac
00000020: e535 5636 96b1 75b8 dd2a 6c3a 0038 8f32
00000030: 913b c42e c6a9 1c37 e0b8 25b3 7b36 81b7
00000040: 8db9 f837 7a2b b52e 8135 39b8 753b c6b3
00000050: b034 41b6 9634 1ca8 fd2d 3789 4cb4 1b30
00000060: cdb0 ed34 c82d 4cae d630 ad26 0faf ebb6
00000070: fc3b 0bba 2ab2 4b39 a0ba 78b3 5ba1 f5b3
00000080: 3ead a5b7 1fb6 49b3 b134 9eb6 b137 232e
00000090: 2d39 9d35 e8b7 f8b4 bdb8 21ae 8c31 1532
000000a0: 7437 fe35 3eae 7538 d034 f5bc 94b1 e530
000000b0: 7635 5e37 c02a 5130 48a4 cfb1 fe35 9ea3
000000c0: b1b5 c2b0 fcb5 0234 70ad 56bb 3938 adab
000000d0: f839 1038 6f31 85b4 5ead b5b5 f5b6 ce2d
000000e0: 67b2 862f af35 ed2c 9332 1ab0 15b2 5e2c
000000f0: 143b feb2 bbba 8134 68bc f530 63a8 5eb2
00000100: 5eb6 c8b6 a2b4 f3b4 66b6 5d39 ca2b ee3a
00000110: 862e 40ba aeac b5b2 4137 6ab9 9c38 b3a5
00000120: a739 3db6 62a7 c0b0 d4b7 4eb4 1034 e536
00000130: 1ab9 64b8 4634 3e33 1135 7b38 7238 9dad
00000140: e6a8 1338 ee31 ec23 61b4 5fb0 6ca7 3ab2
00000150: e9ad 5f8d 3c32 f132 1135 5836 e8b3 c1b8
00000160: c0b8 a930 d1a3 e4a8 a034 c990 442c a531
00000170: ea35 01b7 dcb4 eb39 1ab3 642a e2b1 c934
00000180: ecae 1c36 5cb9 b72f b7ba 7e24 d12f 23b8
00000190: ed34 4aaf 3db4 3f3a 4bb4 b538 f82c 9b38
000001a0: f533 4ab8 2738 9e36 2136 43b0 8c30 65b8
000001b0: 44ae 6b33 fa34 bab9 9938 e72e 86b4 5237
000001c0: fd22 aab3 44af b231 cfb4 483c d9ae 8238
000001d0: 32b2 70b8 23ae 5633 3336 6f2d 1538 6935
000001e0: d733 b9b9 c4b1 132e b2b1 6c30 aa31 8d37
000001f0: 11bd bbb9 0e3a 8134 632c b431 0129 86ab
-0.946 0.02423 -0.09985 -0.04803 0.2502 -0.996 0.41 -0.55
0.3567 -0.10693 0.3384 -0.0313 -0.2231 -0.4402 -0.09875 -0.07605
0.3684 0.396 -0.1746 -0.557 0.05362 0.8027 0.5 0.205
0.946 0.1057 -0.0451 0.4443 -0.6094 -0.2233 0.405 -0.469
-0.694 0.498 0.0584 0.1048 0.344 -0.528 0.932 -0.2429
0.293 -0.3909 0.2866 -0.0321 0.09357 -0.0001591 -0.2686 0.1283
-0.15 0.3079 0.09033 -0.0984 0.1511 0.02608 -0.1103 -0.4324
0.998 -0.7554 -0.1926 0.6616 -0.828 -0.2334 -0.01046 -0.2487
-0.0819 -0.4778 -0.3826 -0.2277 0.2932 -0.4136 0.4807 0.0959
0.647 0.3508 -0.4941 -0.3105 -0.5923 -0.09576 0.1733 0.1901
0.4658 0.3745 -0.09753 0.557 0.3008 -1.239 -0.1743 0.153
0.3413 0.4604 0.05273 0.1349 -0.01672 -0.1815 0.3745 -0.01488
-0.3557 -0.1487 -0.374 0.2505 -0.08496 -0.917 0.528 -0.05997
0.746 0.508 0.1698 -0.2825 -0.08386 -0.3567 -0.4348 0.0907
-0.2001 0.11755 0.3552 0.07697 0.2054 -0.1282 -0.1901 0.06824
0.885 -0.2185 -0.8413 0.2815 -1.102 0.1549 -0.03427 -0.199
-0.398 -0.4238 -0.2896 -0.3093 -0.4 0.6704 0.06085 0.866
0.1019 -0.7812 -0.0731 -0.2096 0.4534 -0.677 0.576 -0.02226
0.7065 -0.39 -0.02884 -0.1484 -0.4893 -0.269 0.254 0.431
-0.6377 -0.549 0.267 0.2263 0.3167 0.56 0.5557 -0.0877
-0.03827 0.5093 0.1853 0.01547 -0.2737 -0.1366 -0.02899 -0.1946
-0.09235 -0.0003278 0.1948 0.2169 0.3167 0.3965 -0.2471 -0.594
-0.5938 0.1456 -0.01527 -0.0382 0.289 -0.000584 0.06665 0.1764
0.3696 -0.4377 -0.3037 0.7397 -0.2219 0.04993 -0.1838 0.299
-0.10815 0.3818 -0.67 0.12054 -0.8394 0.01755 0.12213 -0.517
0.3079 -0.1139 -0.265 0.781 -0.2683 0.5884 0.07764 0.5757
0.2487 -0.536 0.519 0.4136 0.383 -0.1332 0.1421 -0.5493
-0.0979 0.2318 0.311 -0.716 0.5747 0.10785 -0.2827 0.4575
0.01365 -0.2395 -0.1135 0.178 -0.3005 1.07 -0.107 0.5635
-0.1936 -0.5547 -0.0959 0.2292 0.3875 0.0849 0.5103 0.3381
0.245 -0.7153 -0.1802 0.0949 -0.178 0.1382 0.177 0.472
-1.267 -0.7163 0.757 0.2815 0.06854 0.1782 0.0391 -0.05878

model_168/tf.linalg.matmul_18/MatMul f2 [32, 128]
00000000: 4930 6bb9 ae24 d4b6 c338 bbb7 2939 9638
00000010: dd34 a338 a41f e6b2 d036 feb2 9934 792d
00000020: 95bc 1238 d4ad c9bb bab4 5333 8fba 06b1
00000030: 9936 1d31 b830 cbb3 45b9 e522 623c 8cc1
00000040: a3b9 4830 ca34 13b4 6439 c125 13a7 09b6
00000050: e5bc 4f2f 5d30 7b37 a736 40b8 29b4 ff2d
00000060: bb30 6fbc 8e38 7a30 d0b1 15b1 43b4 c237
00000070: 01ad e636 3139 9a30 78b5 eb3c 98b7 3c28
00000080: 3fb5 e49d ab29 bab3 1f2b 11b5 9723 8935
00000090: 09b4 e124 69b8 02b3 8db8 6ab9 74a8 d93d
000000a0: 4a36 c7b1 fb38 15b6 3eb6 62b1 c2b2 4f2d
000000b0: 573a 85b9 0515 5ab2 35b8 dbb4 2636 a0bd
000000c0: 2eb1 01b5 fb35 b937 799b 34ab 67b1 2e35
000000d0: 53b8 f839 48bb c134 93b9 8136 a1ad 0cb6
000000e0: 1aba 0533 f52e d239 1d33 00b6 c4a8 76b6
000000f0: 99ae 5d39 1eb4 0132 ae39 7fb8 19b1 c4b5
00000100: a4b8 98b4 922c bfad b02e 85b3 1a2c 78b8
00000110: a9b9 1cb7 f0a8 3cb2 41b5 62bf ea31 0f2f
00000120: 9a38 e230 ff2e ddb1 fcb0 edaf 7936 8bb2
00000130: 3ab9 d13c 4e3b f830 9038 abac b5bc 25bd
00000140: f7b8 56b1 243a 1539 e3b5 01b9 2eb1 a5b7
00000150: 403c 863a 8e39 f034 0e35 d2ad 912b 6bb9
00000160: ee30 8539 e03c 18b8 cf15 ca26 4daa 84b1
00000170: e738 a934 ef37 3e2f 6d33 3eba d1ba a232
00000180: e9b2 aa30 9736 d0b5 c4ae 052c d92a 03b6
00000190: 7fb8 6db0 27af 06b7 b2a4 13b1 2d36 6236
000001a0: e32e 7f2f bd38 8a31 1431 1a2f 2fa8 a132
000001b0: f631 6db4 01b1 f535 093c 05bc e2a4 96bc
000001c0: 76ba 43b6 2337 8238 74b4 71b9 72b0 dcac
000001d0: dab9 5438 d837 f7b3 e1ba 1a3b 7ab2 d635
000001e0: 73b7 81b2 86b3 b636 e83a 63ab 42b2 10a8
000001f0: 0833 3f32 53b9 9b31 e8b9 5c34 802c ab30
0.1339 -0.6772 0.01828 -0.4268 0.595 -0.4832 0.645 0.573
0.304 0.5796 0.00746 -0.2156 0.4258 -0.2185 0.2874 0.0855
-1.1455 0.509 -0.09106 -0.973 -0.2954 0.2289 -0.82 -0.157
0.4124 0.1598 0.1475 -0.2435 -0.6587 0.013466 1.096 -2.773
-0.7046 0.1338 0.2993 -0.2546 0.674 0.02248 -0.02763 -0.3772
-1.224 0.1142 0.1364 0.4675 0.4158 -0.5312 -0.26 0.0937
0.1478 -1.108 0.5693 0.1399 -0.1816 -0.1588 -0.2664 0.4849
-0.0782 0.4312 0.649 0.1438 -0.3418 1.2295 -0.4746 0.03308
-0.328 -0.005753 0.04428 -0.2415 0.05563 -0.3167 0.014824 0.346
-0.2522 0.01906 -0.5513 -0.219 -0.569 -0.677 -0.0348 1.462
0.393 -0.1805 0.6226 -0.3801 -0.3901 -0.1682 -0.2112 0.08295
0.7925 -0.69 0.001225 -0.1985 -0.526 -0.3035 0.3843 -1.406
-0.1619 -0.3127 0.3738 0.4827 -0.003649 -0.05627 -0.1688 0.3237
-0.5405 0.746 -0.91 0.297 -0.697 0.4065 -0.08795 -0.378
-0.7627 0.2194 0.1087 0.7275 0.2223 -0.375 -0.03723 -0.4038
-0.1031 0.6704 -0.2573 0.1876 0.71 -0.562 -0.1593 -0.3604
-0.58 -0.287 0.0714 -0.0898 0.1045 -0.235 0.0641 -0.5586
-0.7075 -0.4443 -0.03857 -0.1948 -0.3284 -1.846 0.1848 0.1103
0.575 0.1526 0.1093 -0.1832 -0.1558 -0.12384 0.4045 -0.2045
-0.6533 1.204 0.913 0.1553 0.5703 -0.07294 -1.177 -1.286
-0.6206 -0.1667 0.7676 0.6353 -0.368 -0.6255 -0.1619 -0.4778
1.0625 0.8154 0.6943 0.3086 0.316 -0.09094 0.0591 -0.6772
0.154 0.69 1.219 -0.5117 0.001418 0.02652 -0.04922 -0.1724
0.613 0.2913 0.4958 0.11316 0.232 -0.7803 -0.852 0.2073
-0.216 0.1458 0.4119 -0.3633 -0.1057 0.0628 0.0535 -0.3757
-0.562 -0.1383 -0.11176 -0.439 -0.01834 -0.1586 0.386 0.399
0.1076 0.1171 0.5923 0.1731 0.1587 0.11096 -0.03268 0.2072
0.1863 -0.2766 -0.1564 0.3723 1.009 -1.005 -0.01907 -1.146
-0.8076 -0.3914 0.446 0.5635 -0.2783 -0.68 -0.1389 -0.0759
-0.7314 0.541 0.4902 -0.2489 -0.86 0.8877 -0.2024 0.3647
-0.4656 -0.2032 -0.2351 0.4194 0.8633 -0.0577 -0.1956 -0.03174
0.2197 0.1952 -0.6655 0.1752 -0.7383 0.2725 0.0703 0.1459

model_168/tf.linalg.matmul_20/MatMul f2 [96, 32]
00000000: 49b4 0db1 cd30 9530 09b7 f233 812e 9835
00000010: d8ae 1ab0 3e38 18b5 2136 91b4 e7b5 0b2e
00000020: 2bb6 5a3a 7130 b230 5d25 3b2b 4fb4 4c32
00000030: 521c ccaa 53b5 31b1 6db1 e6af 08b8 4bb2
00000040: 2f33 51b0 8cb1 f835 3c24 7032 4834 9225
00000050: 1ab5 b3ad 652c 3038 9736 f22c 94ae cf31
00000060: ec35 0b9d 9ab2 312e f9b2 6fb3 3436 4534
00000070: e3ad 1d34 5032 86b2 d4b2 2d2e 6f2a c1ad
00000080: f4b5 45b0 4f2f d02e eb1e 05af 0430 b7b7
00000090: bb37 82b6 37b6 cbb1 d432 02ab 0835 f0b3
000000a0: 7e39 4329 98b1 8839 02b2 3fad 7f32 ef34
000000b0: 29b6 e722 c6ab ac2e 35b6 73ac 1c37 a036
000000c0: f430 91b8 ec28 b038 4caf 7d23 34ac 752e
000000d0: fc31 3bb4 fe32 2cb4 e73b 61b0 d631 ef31
000000e0: 20af 5336 38b3 53b5 cdac 2834 e1b1 8334
000000f0: a0ae 8fb3 35b1 392d 03b6 3eb9 392d df35
00000100: 4b9f 1f99 9430 2b2a 3b34 a12e c5b4 1c2c
00000110: de32 c731 3ab6 7135 862e 1630 4236 6e28
00000120: 731c 5eb6 57b1 3fb7 9930 ca2c 0626 adac
00000130: ea32 5234 8735 1c35 b833 87b1 fc31 f830
00000140: d334 5e9d d82e 652e 47b1 cbb2 84b3 1eb2
00000150: 7db1 b035 53b4 432f 8db5 ae34 0532 2db5
00000160: fc33 ffa6 25b1 04b1 542e b2a5 b3b3 acaa
00000170: bfb0 6d2d 69af e035 d02c 5c36 f530 ee34
00000180: 1521 3f30 6f32 10b5 49a0 5831 3033 1aa7
00000190: 39ac 6826 54ae d827 ae2e 15b8 1c32 6ab9
000001a0: beb1 0532 cf2d b330 65b5 d2b3 2131 7536
000001b0: 53b5 60b0 ff2e fb30 e531 3625 eba9 fa2c
000001c0: a836 6fb3 bd29 3e2f 26b8 4134 f22d 62ac
000001d0: 0929 0bb8 03ac 97ad 582f 1cae 6735 0a22
000001e0: b833 7caf 9736 ebb4 9eb0 07ad 3932 4c37
000001f0: e6ad 16a9 3133 0834 3ab3 672e 0c28 0d23
-0.2678 -0.1578 0.15 0.1432 -0.4397 0.2483 0.1016 0.3496
-0.10693 -0.1282 0.5303 -0.3184 0.383 -0.2854 -0.369 0.0944
-0.3855 0.794 0.1388 0.1467 0.02095 0.0565 -0.2693 0.1968
0.00422 -0.0531 -0.3328 -0.1622 -0.1696 -0.1234 -0.504 -0.1967
0.2245 -0.1349 -0.1733 0.373 0.01654 0.2012 0.2676 0.02176
-0.3188 -0.08905 0.06866 0.5234 0.4119 0.0773 -0.1028 0.1815
0.37 -0.004925 -0.2063 0.09674 -0.2179 -0.2323 0.3877 0.2668
-0.092 0.257 0.1973 -0.2039 -0.2134 0.0965 0.05026 -0.0899
-0.372 -0.1334 0.1142 0.10645 0.006756 -0.1097 0.1255 -0.4822
0.4832 -0.4067 -0.3884 -0.181 0.2134 -0.05475 0.3145 -0.248
0.6865 0.0411 -0.1748 0.6914 -0.1877 -0.082 0.203 0.3083
-0.385 0.01348 -0.06073 0.10425 -0.388 -0.0695 0.4443 0.414
0.1548 -0.571 0.03845 0.586 -0.114 0.014626 -0.0657 0.1009
0.187 -0.2644 0.2185 -0.2607 0.988 -0.1368 0.1824 0.1854
-0.1113 0.3953 -0.2256 -0.3328 -0.075 0.2598 -0.1837 0.282
-0.1035 -0.2362 -0.1627 0.0816 -0.3757 -0.6553 0.0816 0.367
-0.007122 -0.0025 0.1431 0.0482 0.2644 0.1036 -0.298 0.0642
0.2146 0.1805 -0.3892 0.34 0.1019 0.1277 0.391 0.0346
0.004345 -0.398 -0.1669 -0.453 0.1437 0.0748 0.02353 -0.07306
0.2161 0.27 0.3455 0.3193 0.2412 -0.1727 0.187 0.1553
0.3015 -0.00524 0.10693 0.0999 -0.1649 -0.2123 -0.2349 -0.1912
-0.1715 0.3555 -0.2703 0.11346 -0.347 0.2925 0.1881 -0.3235
0.2495 -0.02733 -0.1608 -0.1567 0.0989 -0.02225 -0.2406 -0.05212
-0.1483 0.0848 -0.1158 0.3672 0.0752 0.3975 0.1549 0.308
0.009926 0.1327 0.201 -0.3164 -0.00837 0.167 0.2246 -0.02774
-0.066 0.02502 -0.0989 0.03064 0.1044 -0.5103 0.1909 -0.677
-0.1794 0.1881 0.09076 0.1469 -0.3372 -0.2444 0.1603 0.4036
-0.3328 -0.1367 0.1093 0.1556 0.1842 0.02036 -0.04623 0.07776
0.416 -0.2323 0.04483 0.11316 -0.5186 0.2659 0.0929 -0.0685
0.03934 -0.5054 -0.0627 -0.08734 0.11475 -0.09546 0.3376 0.011795
0.2412 -0.11694 0.4119 -0.3074 -0.1443 -0.07855 0.1945 0.456
-0.09216 -0.03973 0.2247 0.252 -0.2258 0.10004 0.03162 0.01377

model_168/tf.linalg.matmul_22/MatMul f2 [32, 32]
00000000: f238 efab 0fb4 b132 752a fa28 45a2 d02c
00000010: 5fb3 2fb6 ab27 78a5 0bb3 15b4 3baa e1a7
00000020: 3635 b2b0 0832 2b26 bcb5 3d31 292c 2b1d
00000030: 1c37 2c30 09b0 d3b4 1db0 f336 502d e82c
00000040: 85ad 5a33 8db3 c2b0 c933 8e2f 7633 a8b4
00000050: 8eae b9a9 0db5 502f 79b0 7d34 6d2e ebab
00000060: 7eb1 cfb4 74b0 6622 ba2f 9325 deae 5cb0
00000070: a3ad edae a9a4 a029 65b0 6734 f735 52ae
00000080: b6b0 a930 6035 c6ae bcab e034 5635 eb24
00000090: f4b0 d732 a3b2 9a35 5935 799f 8934 4436
000000a0: 10b4 25b1 1fa7 feb2 99ad 8029 0932 3ab2
000000b0: d6b4 7fb7 4236 7cb0 d9b1 33b0 772b 2fb0
000000c0: 0c34 942c bb36 c5b1 57b1 0834 9e31 1434
000000d0: 23ac dcb0 76b2 3a34 acb2 992e dc31 6c2d
000000e0: 1ba3 84ac 472e afaa ab1e e6ae f12d 6fb1
000000f0: 9fb1 4128 ab33 efac 7225 71a9 34a9 a5b0
00000100: 2234 11b2 4c31 0f35 b2a5 79ab 7caf 8aa8
00000110: afa8 09b5 3eb0 30b0 5c34 d633 e923 9232
00000120: bab5 06a1 72b1 de2b b930 0437 56b1 4232
00000130: dcaf 572c 8028 f72b 2931 90a9 2433 c528
00000140: c996 83a6 8ab9 69b5 c22e 3cae 54b5 f4b0
00000150: 9938 0b2e 43a0 7f2d d2b9 2633 672f beaf
00000160: ddb3 10a5 4327 a435 41b2 102c 5c31 b4ac
00000170: b5ab 0825 a225 fa2e 8e2b a2b7 dc26 4b32
00000180: 6fb2 c3b1 f12e 8794 16b4 4d33 7aae 9830
00000190: bcb1 202c 282a f630 f12c dcac 17a9 f7b0
000001a0: 3229 a4b0 2dac 5030 af2e 00b8 d232 a532
000001b0: 13aa bea4 b4a4 e423 5d23 85b2 7bb0 5eb2
000001c0: 1b31 2a36 8aa2 ce35 f627 79b2 7f38 ffaf
000001d0: 3a34 a835 75b4 12af 51b4 cb30 c4ae 42b0
000001e0: 96b4 652c 66b0 12aa 54a3 76b5 afb3 942c
000001f0: 0631 5fb4 dda6 8e30 3aaf 36b4 d42f 66b8
0.618 -0.06198 -0.2537 0.2091 0.05045 0.03888 -0.012245 0.0752
-0.2303 -0.3865 0.02995 -0.02136 -0.2201 -0.2551 -0.04868 -0.03078
0.3257 -0.1467 0.1885 0.0241 -0.3584 0.1637 0.065 0.005047
0.4443 0.1304 -0.1261 -0.3015 -0.1285 0.4343 0.083 0.07666
-0.08624 0.2297 -0.236 -0.1487 0.2433 0.11804 0.2332 -0.291
-0.1024 -0.0447 -0.3157 0.11426 -0.1398 0.2805 0.1004 -0.06186
-0.1716 -0.3005 -0.1392 0.0125 0.1207 0.02177 -0.1073 -0.1362
-0.0881 -0.1082 -0.0182 0.04395 -0.1373 0.2751 0.3728 -0.09875
-0.1472 0.1456 0.336 -0.10583 -0.06042 0.3047 0.3335 0.01921
-0.1548 0.2137 -0.2074 0.35 0.3342 -0.007298 0.2834 0.3916
-0.254 -0.1608 -0.02782 -0.2185 -0.08746 0.04297 0.1886 -0.1946
-0.3022 -0.4685 0.391 -0.1401 -0.1827 -0.1312 0.05832 -0.1307
0.253 0.07153 0.4207 -0.1803 -0.1669 0.252 0.1755 0.255
-0.06464 -0.1519 -0.2019 0.2642 -0.2085 0.1031 0.1831 0.0847
-0.01388 -0.07056 0.0981 -0.05222 0.00651 -0.1078 0.09283 -0.1698
-0.1757 0.03323 0.2396 -0.0771 0.02127 -0.0425 -0.04065 -0.1451
0.2583 -0.1896 0.1655 0.3162 -0.02225 -0.05838 -0.11694 -0.03546
-0.0366 -0.3147 -0.1326 -0.1309 0.2725 0.2449 0.01545 0.2053
-0.358 -0.00981 -0.1702 0.06146 0.1476 0.4385 -0.1667 0.1956
-0.1228 0.0678 0.03516 0.06223 0.1613 -0.04346 0.2231 0.03726
-0.001657 -0.02544 -0.6924 -0.3381 0.1056 -0.0974 -0.333 -0.1548
0.5747 0.0944 -0.00832 0.0859 -0.7275 0.2234 0.11566 -0.121
-0.2457 -0.01978 0.02837 0.3525 -0.1954 0.0635 0.1675 -0.0735
-0.0602 0.01965 0.022 0.109 0.05902 -0.477 0.0268 0.1967
-0.201 -0.18 0.10846 -0.001105 -0.2554 0.2281 -0.1012 0.1436
-0.1792 0.06445 0.0481 0.155 0.0772 -0.0759 -0.03976 -0.1552
0.0406 -0.145 -0.06525 0.1348 0.10443 -0.5 0.2131 0.2076
-0.04745 -0.01852 -0.01837 0.01541 0.01438 -0.2037 -0.14 -0.199
0.1595 0.3853 -0.01277 0.3628 0.0311 -0.2023 0.562 -0.12494
0.2642 0.3535 -0.2786 -0.1105 -0.2698 0.1498 -0.1057 -0.133
-0.2866 0.06866 -0.1375 -0.04742 -0.01431 -0.3413 -0.2401 0.07153
0.157 -0.2732 -0.02681 0.1423 -0.1129 -0.2632 0.1223 -0.55

model_168/tf.linalg.matmul_24/MatMul f2 [32, 32]
00000000: 3aae 30ae ea23 c6a2 d8b2 8530 c42c 5736
00000010: dd39 26b1 4234 4031 ff2e 5034 3fb3 3d38
00000020: a3b4 95a9 7128 cc32 1535 4235 05b0 0631
00000030: fe35 3a38 0335 2bb5 ac34 3037 5434 23b0
00000040: 762b 27b4 8c34 4aa9 8a33 dd2f 6d22 e7b6
00000050: c2b0 0434 f1b6 4f34 fa34 d8b3 f9ae 4933
00000060: fc32 9da1 6c30 1cb4 1e31 dc31 35a8 1734
00000070: 15a7 3f2c e32f 9431 70ae 6db5 25b0 0732
00000080: 9eb8 8427 0aad 2032 fdb8 ee25 8e35 9a38
00000090: 2938 be34 6033 df2e 3fb2 bcb6 09ac 9f94
000000a0: bdb8 2a2e 5e90 b338 67b4 3132 4e30 a234
000000b0: 17ad 59b4 6934 6eb9 17b1 6035 00ac 5ca8
000000c0: 4736 bd32 2734 2633 112d f2b0 6b24 86b8
000000d0: b02b 71aa f126 82a9 a4b4 b02e ca2d 50aa
000000e0: 7137 bb37 1bae a5ae 5db6 4fa6 3cab 3c34
000000f0: 6730 633a 05b5 5435 1f32 f2b9 5a37 7f27
00000100: 70b4 9fa9 3bb8 4bac 3cb9 f934 ae35 8eaf
00000110: 8128 5630 20b7 43b0 0536 fab4 88b2 7837
00000120: 2233 d636 c636 ee38 0fb0 23b0 42aa 83b5
00000130: 27b1 abb4 f5b2 6c2b efb0 f71d 7b25 75b3
00000140: bab5 fc2e c42e c4ac acbc dc29 ec38 6b2e
00000150: 252c 9625 e0a9 8b32 b5b7 0dad 02b6 352e
00000160: 4fb2 092c ed38 573c 8cac 412d 18b2 5129
00000170: 292c 5cb2 d5b0 7234 daae deb0 dbb3 7fb1
00000180: d3b6 5c2c 2db5 1a2f fbb3 a02c 4838 6a32
00000190: 6e2b c8b3 a5ad a130 6da7 2735 ffad b335
000001a0: 6f1e 63b2 1e2d 9a34 1434 8533 94af 0ab4
000001b0: 84b2 8b31 dea8 d727 f533 d7ac 252f fd36
000001c0: 083c 442f 862d a132 2d36 c028 f7b2 abb6
000001d0: 84b0 f2b1 22a3 c22d fdb9 8eae e332 0432
000001e0: ff36 35b4 cd34 49b8 cdae 56b4 9c24 acae
000001f0: 6b35 0eae 3e25 85b8 0eb4 b235 b1ab 49ad
-0.0973 -0.0967 0.01546 -0.01323 -0.2139 0.1412 0.07446 0.3962
0.733 -0.1609 0.266 0.1641 0.1093 0.2695 -0.2264 0.53
-0.2898 -0.0436 0.0347 0.2124 0.3176 0.3286 -0.1256 0.157
0.3745 0.5283 0.3132 -0.323 0.292 0.4492 0.2705 -0.1293
0.0583 -0.2595 0.2842 -0.04132 0.2356 0.12286 0.01255 -0.4314
-0.1487 0.251 -0.4338 0.2693 0.311 -0.2451 -0.10895 0.2277
0.2183 -0.01096 0.1382 -0.2568 0.1599 0.1831 -0.03287 0.2556
-0.02766 0.06635 0.1232 0.1743 -0.1006 -0.339 -0.1295 0.1884
-0.577 0.02936 -0.07874 0.1914 -0.6235 0.02316 0.3472 0.575
0.52 0.2964 0.2305 0.10736 -0.1952 -0.421 -0.06305 -0.001128
-0.5923 0.0963 -0.000533 0.5874 -0.2751 0.1935 0.1345 0.2896
-0.0795 -0.2717 0.2756 -0.6787 -0.159 0.336 -0.0625 -0.03406
0.3923 0.2106 0.2595 0.2234 0.07916 -0.1545 0.01726 -0.5654
0.06006 -0.05032 0.02711 -0.04303 -0.29 0.1045 0.09045 -0.04932
0.465 0.4832 -0.0954 -0.1038 -0.3977 -0.02464 -0.05652 0.2646
0.1376 0.7983 -0.3137 0.333 0.1913 -0.743 0.4595 0.02928
-0.2773 -0.0439 -0.529 -0.0671 -0.6543 0.3108 0.355 -0.11804
0.0352 0.1355 -0.4453 -0.1332 0.3762 -0.311 -0.2041 0.4668
0.2229 0.4272 0.4233 0.616 -0.1268 -0.1293 -0.0489 -0.3445
-0.161 -0.2917 -0.2174 0.05798 -0.1542 0.005825 0.02141 -0.233
-0.358 0.10913 0.1057 -0.07446 -1.168 0.04578 0.615 0.1003
0.06476 0.02182 -0.0459 0.2045 -0.4817 -0.0789 -0.3755 0.097
-0.1971 0.06305 0.6157 1.085 -0.07104 0.0821 -0.1904 0.04153
0.065 -0.1987 -0.151 0.2778 -0.10706 -0.1521 -0.2455 -0.1718
-0.4265 0.0681 -0.3235 0.11096 -0.2494 0.07227 0.535 0.2004
0.05804 -0.2432 -0.0882 0.1447 -0.029 0.322 -0.0937 0.3562
0.006283 -0.1996 0.07996 0.2876 0.255 0.235 -0.1184 -0.2524
-0.2036 0.1732 -0.03802 0.03062 0.2487 -0.0756 0.11163 0.4368
1.008 0.1135 0.0863 0.2072 0.386 0.0371 -0.2177 -0.4167
-0.1411 -0.1858 -0.01393 0.08997 -0.7485 -0.1024 0.2152 0.188
0.4373 -0.263 0.3 -0.5356 -0.10626 -0.271 0.018 -0.10425
0.3386 -0.0946 0.02048 -0.565 -0.2534 0.356 -0.0601 -0.0826

model_168/tf.linalg.matmul_26/MatMul f2 [32, 32]
00000000: 77b8 0c28 1530 84b5 0ab5 4aa9 1dba ddb9
00000010: 4731 1c3a 2ab6 bd38 66b1 d5b7 91ba ffb8
00000020: 23b4 6b39 1e34 43b3 aa36 58b1 3c9d 7bb5
00000030: 5d2c dc2f 0333 912e e7a6 9837 5c38 5a32
00000040: 1232 203a 97b1 3c34 1db4 7632 a7b7 6029
00000050: d6b0 afb0 e4b9 0db6 e71b 10b8 1039 cebd
00000060: 2935 9735 572d 0a35 8aba 6eb2 07b0 ee33
00000070: 33b8 51b3 f52f 03ac 29b9 7936 3627 89a7
00000080: 51ba f5b6 9333 be35 89b8 8430 9594 33b4
00000090: ef3b 5232 00b7 2d31 1137 8b2e d937 e73e
000000a0: ce2f 2aae 0c30 6235 56bb 31b8 792f 43ac
000000b0: 4332 c233 68b5 7eb3 1eb0 37b4 3ab8 a52a
000000c0: 8730 05b6 b1b0 8731 f536 3ab4 96b9 05b4
000000d0: 89b7 ceb4 0b34 5c35 5a37 2739 5431 e036
000000e0: a330 6e34 5a34 49b1 ef36 62b3 ab35 32b7
000000f0: 4fb7 c638 22b7 bcaf 31b3 a632 b6b8 33b5
00000100: 45a7 bc38 7fb8 43b2 50b7 6f2c b82c 50b8
00000110: 2135 4233 93b8 2936 c32c 58a6 b6b8 a6bd
00000120: 1e33 1d39 5f24 42b8 703c 1cb4 482a 1438
00000130: 66b6 85af f9a8 0db5 3eb1 ba34 402c 06b5
00000140: 8db0 c632 5333 ee35 43b6 522b 0036 cf31
00000150: b596 5233 f828 55b5 64b2 b6b8 20b4 04c3
00000160: c236 b838 d435 9eb5 70b9 c332 2cad a12e
00000170: cfb0 2531 36a9 8637 61b7 c33b d4a8 ed32
00000180: 47b4 94b9 2e31 4cb0 2baa 91b1 c932 4335
00000190: 1db1 682c d5b2 5538 6e35 5eb1 ac39 523e
000001a0: 692f 8c37 53b8 3f37 e5b8 61b9 c62a 1eb7
000001b0: 94ac 982a 1eb9 b133 f432 dab4 aa32 ccb4
000001c0: 98b0 5d93 3ab3 cab6 bd31 79b7 0c2f a33c
000001d0: cab1 5138 db32 9cb6 d4a5 e2b3 651c 67c4
000001e0: 4b35 07a3 4c2a a8b4 2538 dd32 4c30 ac35
000001f0: 1735 b8b4 c1b1 69b5 4e34 d038 a835 48b5
-0.558 0.03162 0.1276 -0.3447 -0.315 -0.04132 -0.764 -0.733
0.1649 0.7637 -0.3853 0.5923 -0.1687 -0.4895 -0.821 -0.6245
-0.2585 0.6772 0.2573 -0.2269 0.4165 -0.167 -0.00511 -0.3425
0.0682 0.1228 0.2191 0.1026 -0.02696 0.4746 0.545 0.1985
0.1897 0.7656 -0.1747 0.2646 -0.257 0.2019 -0.4783 0.042
-0.1511 -0.1464 -0.7363 -0.3782 0.003859 -0.508 0.633 -1.451
0.3225 0.3494 0.08344 0.315 -0.8174 -0.2009 -0.1259 0.2478
-0.525 -0.2286 0.1243 -0.0627 -0.645 0.4045 0.02817 -0.02943
-0.7896 -0.4348 0.2367 0.359 -0.567 0.1411 -0.001119 -0.2625
0.9917 0.1975 -0.4375 0.1617 0.4417 0.10223 0.4905 1.726
0.12195 -0.0963 0.1265 0.3364 -0.917 -0.524 0.11676 -0.0666
0.1957 0.2424 -0.338 -0.2341 -0.1287 -0.2634 -0.5283 0.0519
0.1415 -0.3762 -0.1466 0.1727 0.4348 -0.2642 -0.698 -0.2512
-0.471 -0.3003 0.2527 0.335 0.4595 0.644 0.1665 0.4297
0.1449 0.2769 0.272 -0.1652 0.4333 -0.2307 0.3542 -0.4497
-0.4568 0.5967 -0.4458 -0.12085 -0.2247 0.2078 -0.589 -0.325
-0.0284 0.592 -0.562 -0.1957 -0.457 0.0693 0.0737 -0.539
0.3206 0.2268 -0.572 0.385 0.0744 -0.02478 -0.589 -1.412
0.2224 0.639 0.01707 -0.532 1.109 -0.2568 0.04907 0.51
-0.4 -0.1175 -0.03885 -0.3157 -0.1638 0.2954 0.0664 -0.314
-0.1422 0.2117 0.2289 0.3706 -0.3914 0.0572 0.375 0.1815
-0.001637 0.2288 0.03882 -0.3333 -0.1997 -0.589 -0.2578 -3.508
0.4224 0.59 0.3643 -0.351 -0.6797 0.2113 -0.0808 0.1036
-0.1503 0.1608 -0.0407 0.4702 -0.4612 0.97 -0.03772 0.2164
-0.2673 -0.6973 0.1619 -0.1343 -0.0482 -0.174 0.212 0.3289
-0.1598 0.06885 -0.2135 0.5415 0.3394 -0.1677 0.709 1.58
0.1158 0.4717 -0.5405 0.453 -0.612 -0.6724 0.05292 -0.4448
-0.07153 0.0515 -0.6396 0.2404 0.2173 -0.3032 0.2083 -0.2998
-0.1436 -0.000899 -0.2258 -0.4243 0.1793 -0.467 0.1101 1.159
-0.1809 0.5396 0.2142 -0.413 -0.02277 -0.2463 0.00429 -4.402
0.3308 -0.013725 0.0492 -0.291 0.518 0.2145 0.1343 0.3545
0.318 -0.295 -0.1798 -0.3381 0.269 0.6016 0.3535 -0.33
