prebuilts/samsung/a73xqxx/system/saiv/textrecognition/stride/mSTR_Cyrillic_CNN.tflite (tflite, 618512 bytes, 10 tensors)

recog/cnn/GSE_A_1/GSE_A_1_fully_connected1/GSE_A_1_fully_connected1/MatMul i1 [6, 96] scale=0.009904917 zero_point=0
00000000: e745 e7f2 8120 00d8 443d 17d7 fe00 e8d7
00000010: 1dcf 20e6 1ff7 c30a f0fa df14 f623 fad6
00000020: e81c 051d 102e 1b07 0506 e0c4 f3d8 0fbe
00000030: f80d 072d ec30 f5bf 3cf6 e4ef f509 fbf0
00000040: f5f2 3010 c4e8 f0d2 1b1c 04eb fbdb e3ed
00000050: f414 0a67 cbe0 0ff4 0a20 32ef 45ed 0de7
00000060: 3ed7 ed1d 6d1c 27f7 efd1 1043 2201 e94a
00000070: fc20 1932 f84e 0906 eae1 1806 fce7 141b
00000080: 4316 2e1c 0106 f1f2 1d1d 1f36 2ce0 db32
00000090: d316 1cf5 20dc 2410 d619 1202 0c3d dff3
000000a0: 2746 00fd 0b1f 0848 dfff 07e4 34e1 3a1e
000000b0: 141f 0dc1 fe02 1f3a 00f6 ed52 d235 0b01
000000c0: 0be4 0afc e6c8 f203 ef11 e225 f2e8 2308
000000d0: da0a 1d4a 1208 0bd2 332a eafb fd06 fc03
000000e0: e3b9 ed29 da20 e83b 171c dbee e321 feee
000000f0: 2c03 3af3 fff6 2def 1900 f3ea eef9 0416
-0.24762294 0.6834393 -0.24762294 -0.13866884 -1.2579246 0.31695735 0.0 -0.3961967
0.6735344 0.60419995 0.2278131 -0.4061016 -0.019809835 0.0 -0.23771802 -0.4061016
0.2872426 -0.48534095 0.31695735 -0.25752786 0.30705243 -0.08914426 -0.60419995 0.09904917
-0.15847868 -0.059429504 -0.32686228 0.19809835 -0.09904917 0.34667212 -0.059429504 -0.41600654
-0.23771802 0.27733767 0.049524587 0.2872426 0.15847868 0.4556262 0.26743278 0.06933442
0.049524587 0.059429504 -0.31695735 -0.594295 -0.12876393 -0.3961967 0.14857376 -0.65372455
-0.07923934 0.12876393 0.06933442 0.44572127 -0.19809835 0.47543603 -0.10895409 -0.64381963
0.594295 -0.09904917 -0.27733767 -0.1683836 -0.10895409 0.08914426 -0.049524587 -0.15847868
-0.10895409 -0.13866884 0.47543603 0.15847868 -0.594295 -0.23771802 -0.15847868 -0.4556262
0.26743278 0.27733767 0.03961967 -0.20800327 -0.049524587 -0.36648193 -0.2872426 -0.18819343
-0.11885901 0.19809835 0.09904917 1.0202065 -0.52496064 -0.31695735 0.14857376 -0.11885901
0.09904917 0.31695735 0.49524587 -0.1683836 0.6834393 -0.18819343 0.12876393 -0.24762294
0.61410487 -0.4061016 -0.18819343 0.2872426 1.079636 0.27733767 0.38629177 -0.08914426
-0.1683836 -0.4655311 0.15847868 0.6636295 0.3367672 0.009904917 -0.2278131 0.73296386
-0.03961967 0.31695735 0.24762294 0.49524587 -0.07923934 0.77258354 0.08914426 0.059429504
-0.21790817 -0.30705243 0.23771802 0.059429504 -0.03961967 -0.24762294 0.19809835 0.26743278
0.6636295 0.21790817 0.4556262 0.27733767 0.009904917 0.059429504 -0.14857376 -0.13866884
0.2872426 0.2872426 0.30705243 0.53486556 0.43581635 -0.31695735 -0.36648193 0.49524587
-0.44572127 0.21790817 0.27733767 -0.10895409 0.31695735 -0.35657704 0.35657704 0.15847868
-0.41600654 0.24762294 0.17828852 0.019809835 0.11885901 0.60419995 -0.32686228 -0.12876393
0.38629177 0.69334424 0.0 -0.029714752 0.10895409 0.30705243 0.07923934 0.7131541
-0.32686228 -0.009904917 0.06933442 -0.27733767 0.5150557 -0.30705243 0.5744852 0.2971475
0.19809835 0.30705243 0.12876393 -0.6240098 -0.019809835 0.019809835 0.30705243 0.5744852
0.0 -0.09904917 -0.18819343 0.8122032 -0.4556262 0.52496064 0.10895409 0.009904917
0.10895409 -0.27733767 0.09904917 -0.03961967 -0.25752786 -0.55467534 -0.13866884 0.029714752
-0.1683836 0.1683836 -0.2971475 0.36648193 -0.13866884 -0.23771802 0.34667212 0.07923934
-0.37638685 0.09904917 0.2872426 0.73296386 0.17828852 0.07923934 0.10895409 -0.4556262
0.5051508 0.41600654 -0.21790817 -0.049524587 -0.029714752 0.059429504 -0.03961967 0.029714752
-0.2872426 -0.70324916 -0.18819343 0.4061016 -0.37638685 0.31695735 -0.23771802 0.5843901
0.2278131 0.27733767 -0.36648193 -0.17828852 -0.2872426 0.32686228 -0.019809835 -0.17828852
0.43581635 0.029714752 0.5744852 -0.12876393 -0.009904917 -0.09904917 0.44572127 -0.1683836
0.24762294 0.0 -0.12876393 -0.21790817 -0.17828852 -0.06933442 0.03961967 0.21790817

recog/cnn/GSE_A_1/GSE_A_1_fully_connected2/GSE_A_1_fully_connected2/MatMul i1 [96, 6] scale=0.01463986 zero_point=0
00000000: 0dee fef8 02f9 fdfd f50a fd11 ed10 f5fb
00000010: 0af1 f0f1 fff4 080c 2625 2507 0318 3e2c
00000020: 2b11 0426 0b05 f3fe 06f3 f8f5 16f2 03f6
00000030: 1b30 1c12 0435 04ed fb18 0313 2c1c 2b1a
00000040: 043c 4b50 5a21 0143 2e0c 231c ff14 4c53
00000050: 580d 0c57 182f 23fc 021d 21f6 0a18 ff0c
00000060: f4ed 07f3 f90d 0f01 1c0e f310 d9f0 dcf6
00000070: 0fd8 1405 0708 0501 fb03 fdf7 f8fb 12f8
00000080: 1101 0701 102b 35ff 0f29 2423 3a08 0d42
00000090: fef5 0406 ff05 3132 2a1a f241 05f6 f31c
000000a0: 0c13 2343 2bfa 0a3e fc17 06f4 ff08 112f
000000b0: 0705 0a04 1d06 1f03 0915 2f2a 2c15 0d32
000000c0: 0efe 00fe f411 f2fe 0a08 0bed 2001 1607
000000d0: f11a f0e4 0c01 fafb fb13 2110 021b 0ae5
000000e0: ee05 01e4 3353 3b11 fc31 0626 1107 f821
000000f0: f417 13f7 03fd dd01 e604 fcd9 617f 79fe
0.19031818 -0.26351747 -0.02927972 -0.11711888 0.02927972 -0.10247902 -0.04391958 -0.04391958
-0.16103846 0.1463986 -0.04391958 0.24887761 -0.27815735 0.23423776 -0.16103846 -0.0731993
0.1463986 -0.2195979 -0.23423776 -0.2195979 -0.01463986 -0.17567831 0.11711888 0.17567831
0.5563147 0.5416748 0.5416748 0.10247902 0.04391958 0.35135663 0.90767133 0.64415383
0.629514 0.24887761 0.05855944 0.5563147 0.16103846 0.0731993 -0.19031818 -0.02927972
0.08783916 -0.19031818 -0.11711888 -0.16103846 0.32207692 -0.20495804 0.04391958 -0.1463986
0.39527622 0.70271325 0.40991607 0.26351747 0.05855944 0.7759126 0.05855944 -0.27815735
-0.0731993 0.35135663 0.04391958 0.27815735 0.64415383 0.40991607 0.629514 0.38063636
0.05855944 0.8783916 1.0979896 1.1711888 1.3175874 0.48311538 0.01463986 0.9808706
0.67343354 0.17567831 0.5123951 0.40991607 -0.01463986 0.2927972 1.1126294 1.2151084
1.2883077 0.19031818 0.17567831 1.2736678 0.35135663 0.6880734 0.5123951 -0.05855944
0.02927972 0.42455593 0.48311538 -0.1463986 0.1463986 0.35135663 -0.01463986 0.17567831
-0.17567831 -0.27815735 0.10247902 -0.19031818 -0.10247902 0.19031818 0.2195979 0.01463986
0.40991607 0.20495804 -0.19031818 0.23423776 -0.57095456 -0.23423776 -0.52703494 -0.1463986
0.2195979 -0.5855944 0.2927972 0.0731993 0.10247902 0.11711888 0.0731993 0.01463986
-0.0731993 0.04391958 -0.04391958 -0.13175873 -0.11711888 -0.0731993 0.26351747 -0.11711888
0.24887761 0.01463986 0.10247902 0.01463986 0.23423776 0.629514 0.7759126 -0.01463986
0.2195979 0.60023427 0.52703494 0.5123951 0.84911186 0.11711888 0.19031818 0.96623075
-0.02927972 -0.16103846 0.05855944 0.08783916 -0.01463986 0.0731993 0.71735317 0.731993
0.6148741 0.38063636 -0.20495804 0.9515909 0.0731993 -0.1463986 -0.19031818 0.40991607
0.17567831 0.27815735 0.5123951 0.9808706 0.629514 -0.08783916 0.1463986 0.90767133
-0.05855944 0.33671677 0.08783916 -0.17567831 -0.01463986 0.11711888 0.24887761 0.6880734
0.10247902 0.0731993 0.1463986 0.05855944 0.42455593 0.08783916 0.45383567 0.04391958
0.13175873 0.30743706 0.6880734 0.6148741 0.64415383 0.30743706 0.19031818 0.731993
0.20495804 -0.02927972 0.0 -0.02927972 -0.17567831 0.24887761 -0.20495804 -0.02927972
0.1463986 0.11711888 0.16103846 -0.27815735 0.46847552 0.01463986 0.32207692 0.10247902
-0.2195979 0.38063636 -0.23423776 -0.40991607 0.17567831 0.01463986 -0.08783916 -0.0731993
-0.0731993 0.27815735 0.48311538 0.23423776 0.02927972 0.39527622 0.1463986 -0.39527622
-0.26351747 0.0731993 0.01463986 -0.40991607 0.7466329 1.2151084 0.86375177 0.24887761
-0.05855944 0.71735317 0.08783916 0.5563147 0.24887761 0.10247902 -0.11711888 0.48311538
-0.17567831 0.33671677 0.27815735 -0.13175873 0.04391958 -0.04391958 -0.5123951 0.01463986
-0.38063636 0.05855944 -0.05855944 -0.57095456 1.4200665 1.8592622 1.7714231 -0.02927972

recog/cnn/GSE_B_2/GSE_B_2_fully_connected1/GSE_B_2_fully_connected1/MatMul i1 [9, 156] scale=0.009463357 zero_point=0
00000000: 05fc eb09 0d0b f2ee fcf2 ebf6 11ff 0d00
00000010: 0bf0 fcef edf9 0403 0f04 f40a f1f5 0aee
00000020: 0ff7 1101 05f1 f10d eef5 0200 f4f8 0aef
00000030: ef04 eaf0 13fc 100d f2f3 f3f4 030d 000d
00000040: f2fb 01f3 0701 0cf5 01ea ef06 0fef 0807
00000050: fbef 00f0 04ec faf6 1110 eff0 1213 ebef
00000060: fdf8 0110 f5f8 04ed fc0f 100a fb00 09fe
00000070: fefc f205 0deb edf5 ea0e f106 f60f f10a
00000080: ef0b 0a0c 0f04 fbec 120e fbf1 0ffc fc00
00000090: 00f9 eeee f4fa 0007 0af5 12ee d4f3 32c9
000000a0: 0136 18f9 36c5 fe11 1239 fff8 10d2 f11e
000000b0: 3413 161f 6407 d0fa b5f9 fa3f 11d6 3610
000000c0: 37fe 1c0c 491c 18e1 de0f 2238 e119 3a21
000000d0: f227 4901 0803 0f04 7f1c 9002 dd17 0fff
000000e0: 1029 e224 ce0c 13f5 1aeb 18f3 281e 27f1
000000f0: 2429 0821 0ff4 dae5 320a 39fc 30ef 3231
0.047316782 -0.037853427 -0.1987305 0.08517021 0.12302364 0.10409693 -0.132487 -0.17034042
-0.037853427 -0.132487 -0.1987305 -0.094633564 0.16087706 -0.009463357 0.12302364 0.0
0.10409693 -0.15141371 -0.037853427 -0.16087706 -0.17980377 -0.0662435 0.037853427 0.02839007
0.14195035 0.037853427 -0.11356028 0.094633564 -0.14195035 -0.10409693 0.094633564 -0.17034042
0.14195035 -0.08517021 0.16087706 0.009463357 0.047316782 -0.14195035 -0.14195035 0.12302364
-0.17034042 -0.10409693 0.018926714 0.0 -0.11356028 -0.075706854 0.094633564 -0.16087706
-0.16087706 0.037853427 -0.20819385 -0.15141371 0.17980377 -0.037853427 0.15141371 0.12302364
-0.132487 -0.12302364 -0.12302364 -0.11356028 0.02839007 0.12302364 0.0 0.12302364
-0.132487 -0.047316782 0.009463357 -0.12302364 0.0662435 0.009463357 0.11356028 -0.10409693
0.009463357 -0.20819385 -0.16087706 0.05678014 0.14195035 -0.16087706 0.075706854 0.0662435
-0.047316782 -0.16087706 0.0 -0.15141371 0.037853427 -0.18926713 -0.05678014 -0.094633564
0.16087706 0.15141371 -0.16087706 -0.15141371 0.17034042 0.17980377 -0.1987305 -0.16087706
-0.02839007 -0.075706854 0.009463357 0.15141371 -0.10409693 -0.075706854 0.037853427 -0.17980377
-0.037853427 0.14195035 0.15141371 0.094633564 -0.047316782 0.0 0.08517021 -0.018926714
-0.018926714 -0.037853427 -0.132487 0.047316782 0.12302364 -0.1987305 -0.17980377 -0.10409693
-0.20819385 0.132487 -0.14195035 0.05678014 -0.094633564 0.14195035 -0.14195035 0.094633564
-0.16087706 0.10409693 0.094633564 0.11356028 0.14195035 0.037853427 -0.047316782 -0.18926713
0.17034042 0.132487 -0.047316782 -0.14195035 0.14195035 -0.037853427 -0.037853427 0.0
0.0 -0.0662435 -0.17034042 -0.17034042 -0.11356028 -0.05678014 0.0 0.0662435
0.094633564 -0.10409693 0.17034042 -0.17034042 -0.4163877 -0.12302364 0.47316784 -0.5204846
0.009463357 0.51102126 0.22712056 -0.0662435 0.51102126 -0.55833805 -0.018926714 0.16087706
0.17034042 0.53941137 -0.009463357 -0.075706854 0.15141371 -0.43531442 -0.14195035 0.2839007
0.49209455 0.17980377 0.20819385 0.29336405 0.9463357 0.0662435 -0.45424113 -0.05678014
-0.7097518 -0.0662435 -0.05678014 0.59619147 0.16087706 -0.397461 0.51102126 0.15141371
0.5204846 -0.018926714 0.264974 0.11356028 0.69082505 0.264974 0.22712056 -0.29336405
-0.32175413 0.14195035 0.32175413 0.529948 -0.29336405 0.23658392 0.5488747 0.3122908
-0.132487 0.36907092 0.69082505 0.009463357 0.075706854 0.02839007 0.14195035 0.037853427
1.2018464 0.264974 -1.059896 0.018926714 -0.3312175 0.21765721 0.14195035 -0.009463357
0.15141371 0.38799763 -0.2839007 0.34068084 -0.47316784 0.11356028 0.17980377 -0.10409693
0.24604727 -0.1987305 0.22712056 -0.12302364 0.37853426 0.2839007 0.36907092 -0.14195035
0.34068084 0.38799763 0.075706854 0.3122908 0.14195035 -0.11356028 -0.35960755 -0.25551063
0.47316784 0.094633564 0.53941137 -0.037853427 0.45424113 -0.16087706 0.47316784 0.4637045

recog/cnn/GSE_B_2/GSE_B_2_fully_connected2/GSE_B_2_fully_connected2/MatMul i1 [156, 9] scale=0.008772925 zero_point=0
00000000: f0f4 ee2e eeec 1ffe 350d 0ffe 15f6 020a
00000010: 011b e907 f8f0 20ef eeef 0ef4 1c06 f256
00000020: 081e 1ff4 0808 0d02 1efc ffe3 ebfd 0aff
00000030: ee17 fff8 1625 f8d5 f3c5 0bfc c40e 09eb
00000040: 54ed 424c ed3d 0f70 f0de f5fc fa09 1c1c
00000050: e5f5 ea05 17cd f213 120b 0100 f510 2015
00000060: 1f25 07f2 320b 4234 0861 1c29 0422 fcfa
00000070: 0ceb 06f5 2fff f2fd 13bf ecf6 22f9 1527
00000080: 0ef7 0e01 1017 3510 de00 fa0f 0f12 edf7
00000090: 1522 f92a f1ff 0cea 1100 2f0f 0528 f431
000000a0: 002e 0a1a f1ed 140a f6d2 0804 e8fd 0a02
000000b0: f809 ee10 0fdb fbe8 1aec ee2c cb16 eaef
000000c0: fff8 111a f8d8 f212 10f2 18fe 1301 e5f7
000000d0: f410 21d0 1508 f513 0b43 f62c f703 41fd
000000e0: 49f2 2afd 24e1 151b de0f 0d16 122a 1cf4
000000f0: 2ef2 4af5 2008 47e6 1402 f337 02ec 1133
-0.1403668 -0.105275095 -0.15791264 0.40355453 -0.15791264 -0.17545849 0.27196068 -0.01754585
0.464965 0.11404802 0.13159387 -0.01754585 0.18423142 -0.087729245 0.01754585 0.087729245
0.008772925 0.23686896 -0.20177726 0.06141047 -0.0701834 -0.1403668 0.2807336 -0.14913972
-0.15791264 -0.14913972 0.12282094 -0.105275095 0.24564189 0.052637547 -0.12282094 0.75447154
0.0701834 0.26318774 0.27196068 -0.105275095 0.0701834 0.0701834 0.11404802 0.01754585
0.26318774 -0.0350917 -0.008772925 -0.2544148 -0.18423142 -0.026318774 0.087729245 -0.008772925
-0.15791264 0.20177726 -0.008772925 -0.0701834 0.19300434 0.3245982 -0.0701834 -0.37723577
-0.11404802 -0.51760256 0.09650217 -0.0350917 -0.5263755 0.12282094 0.07895632 -0.18423142
0.73692566 -0.16668557 0.579013 0.66674227 -0.16668557 0.5351484 0.13159387 0.98256755
-0.1403668 -0.29827943 -0.09650217 -0.0350917 -0.052637547 0.07895632 0.24564189 0.24564189
-0.23686896 -0.09650217 -0.19300434 0.043864623 0.20177726 -0.44741917 -0.12282094 0.16668557
0.15791264 0.09650217 0.008772925 0.0 -0.09650217 0.1403668 0.2807336 0.18423142
0.27196068 0.3245982 0.06141047 -0.12282094 0.43864623 0.09650217 0.579013 0.45619208
0.0701834 0.85097367 0.24564189 0.3596899 0.0350917 0.29827943 -0.0350917 -0.052637547
0.105275095 -0.18423142 0.052637547 -0.09650217 0.41232747 -0.008772925 -0.12282094 -0.026318774
0.16668557 -0.5702401 -0.17545849 -0.087729245 0.29827943 -0.06141047 0.18423142 0.34214407
0.12282094 -0.07895632 0.12282094 0.008772925 0.1403668 0.20177726 0.464965 0.1403668
-0.29827943 0.0 -0.052637547 0.13159387 0.13159387 0.15791264 -0.16668557 -0.07895632
0.18423142 0.29827943 -0.06141047 0.36846283 -0.13159387 -0.008772925 0.105275095 -0.19300434
0.14913972 0.0 0.41232747 0.13159387 0.043864623 0.35091698 -0.105275095 0.4298733
0.0 0.40355453 0.087729245 0.22809604 -0.13159387 -0.16668557 0.17545849 0.087729245
-0.087729245 -0.40355453 0.0701834 0.0350917 -0.21055019 -0.026318774 0.087729245 0.01754585
-0.0701834 0.07895632 -0.15791264 0.1403668 0.13159387 -0.3245982 -0.043864623 -0.21055019
0.22809604 -0.17545849 -0.15791264 0.38600868 -0.464965 0.19300434 -0.19300434 -0.14913972
-0.008772925 -0.0701834 0.14913972 0.22809604 -0.0701834 -0.35091698 -0.12282094 0.15791264
0.1403668 -0.12282094 0.21055019 -0.01754585 0.16668557 0.008772925 -0.23686896 -0.07895632
-0.105275095 0.1403668 0.2895065 -0.42110038 0.18423142 0.0701834 -0.09650217 0.16668557
0.09650217 0.58778596 -0.087729245 0.38600868 -0.07895632 0.026318774 0.5702401 -0.026318774
0.6404235 -0.12282094 0.36846283 -0.026318774 0.31582528 -0.27196068 0.18423142 0.23686896
-0.29827943 0.13159387 0.11404802 0.19300434 0.15791264 0.36846283 0.24564189 -0.105275095
0.40355453 -0.12282094 0.6491964 -0.09650217 0.2807336 0.0701834 0.62287766 -0.22809604
0.17545849 0.01754585 -0.11404802 0.48251086 0.01754585 -0.17545849 0.14913972 0.44741917

recog/cnn/conv2d/Conv2D i1 [32, 3, 3, 3]
00000000: 051b 2a00 6049 f6c0 c239 2937 ed2c 361e
00000010: 8183 f14b 3ace f5e9 fdb4 b5f8 c109 ef81
00000020: bd8d 9eab 3265 ed27 507b 2347 5dbe 1103
00000030: 2c2d e727 e5e0 c617 3181 2a59 ed0a 0aae
00000040: 301c 24ef e94c f3c1 23da 085c edb0 2edd
00000050: efd8 d94a f1f2 8343 6c11 b302 75fd 8681
00000060: 4568 fae0 046d ba99 bb64 3b0c 30bb e0bb
00000070: 8101 1f2c 0ae0 95ed d2e9 ec14 5eff e3df
00000080: e120 7834 2c63 297f 351a 581e e5f1 01fc
00000090: f900 f79c a1e3 dcf7 09f0 e4ef d507 1c04
000000a0: 2915 b3e5 24c8 3bc8 7fe7 10a1 b8b6 fd46
000000b0: 225f 092b b20d d43e 0bef 19db 42c0 46f9
000000c0: e62b f02a efe8 150f dc6a a6ed 3ace f411
000000d0: d914 e5fc 2181 4144 110d 1238 ebc6 341b
000000e0: c4ba c7fe 81bc 1ee8 b3d3 3e46 073a 3637
000000f0: e839 36f4 f908 4c59 df7f 7ae8 b9be 03b9
5 27 42 0 96 73 -10 -64
-62 57 41 55 -19 44 54 30
-127 -125 -15 75 58 -50 -11 -23
-3 -76 -75 -8 -63 9 -17 -127
-67 -115 -98 -85 50 101 -19 39
80 123 35 71 93 -66 17 3
44 45 -25 39 -27 -32 -58 23
49 -127 42 89 -19 10 10 -82
48 28 36 -17 -23 76 -13 -63
35 -38 8 92 -19 -80 46 -35
-17 -40 -39 74 -15 -14 -125 67
108 17 -77 2 117 -3 -122 -127
69 104 -6 -32 4 109 -70 -103
-69 100 59 12 48 -69 -32 -69
-127 1 31 44 10 -32 -107 -19
-46 -23 -20 20 94 -1 -29 -33
-31 32 120 52 44 99 41 127
53 26 88 30 -27 -15 1 -4
-7 0 -9 -100 -95 -29 -36 -9
9 -16 -28 -17 -43 7 28 4
41 21 -77 -27 36 -56 59 -56
127 -25 16 -95 -72 -74 -3 70
34 95 9 43 -78 13 -44 62
11 -17 25 -37 66 -64 70 -7
-26 43 -16 42 -17 -24 21 15
-36 106 -90 -19 58 -50 -12 17
-39 20 -27 -4 33 -127 65 68
17 13 18 56 -21 -58 52 27
-60 -70 -57 -2 -127 -68 30 -24
-77 -45 62 70 7 58 54 55
-24 57 54 -12 -7 8 76 89
-33 127 122 -24 -71 -66 3 -71

recog/cnn/extra/Conv2D i1 [64, 3, 3, 32]
00000000: ebfb 0505 ef06 fc11 03f8 2408 0112 ffe8
00000010: ede8 18fd 0f17 fc00 f4fe f4d9 0207 fb11
00000020: f905 17ef f10c cd03 07e9 fad5 09f9 ebea
00000030: fb04 1409 06ed d6bc e5f2 e5f6 07e3 f51e
00000040: 0804 3d22 1922 2118 fd01 11e9 f312 fff2
00000050: 0c20 1213 1a45 150a e70c 5014 0be8 fd2c
00000060: e3e9 f9d6 e715 dfd5 eee1 cbe1 03ff 0d0a
00000070: e5d9 1619 e5a9 eeef 15ef 81fd 0504 19ab
00000080: f70e f8dc 0609 dbdd f8d4 9ac7 1604 d8fa
00000090: fc02 2612 e1c5 eec0 0605 bb11 04f3 02db
000000a0: f7fe 35f0 0324 1103 10fe caf9 f40f f804
000000b0: 0102 2efa 0c02 1206 f909 ff26 f4e2 f311
000000c0: ebf6 f9f8 e208 f708 0deb 0ae9 0409 0805
000000d0: fd04 2906 ded5 03ea 2a0b c806 fc09 1810
000000e0: 18ea fc17 0020 0b10 09e4 e4bb 080b ff15
000000f0: 1b23 1d0d d5e4 2b01 0621 f51c 04f3 1501
-21 -5 5 5 -17 6 -4 17
3 -8 36 8 1 18 -1 -24
-19 -24 24 -3 15 23 -4 0
-12 -2 -12 -39 2 7 -5 17
-7 5 23 -17 -15 12 -51 3
7 -23 -6 -43 9 -7 -21 -22
-5 4 20 9 6 -19 -42 -68
-27 -14 -27 -10 7 -29 -11 30
8 4 61 34 25 34 33 24
-3 1 17 -23 -13 18 -1 -14
12 32 18 19 26 69 21 10
-25 12 80 20 11 -24 -3 44
-29 -23 -7 -42 -25 21 -33 -43
-18 -31 -53 -31 3 -1 13 10
-27 -39 22 25 -27 -87 -18 -17
21 -17 -127 -3 5 4 25 -85
-9 14 -8 -36 6 9 -37 -35
-8 -44 -102 -57 22 4 -40 -6
-4 2 38 18 -31 -59 -18 -64
6 5 -69 17 4 -13 2 -37
-9 -2 53 -16 3 36 17 3
16 -2 -54 -7 -12 15 -8 4
1 2 46 -6 12 2 18 6
-7 9 -1 38 -12 -30 -13 17
-21 -10 -7 -8 -30 8 -9 8
13 -21 10 -23 4 9 8 5
-3 4 41 6 -34 -43 3 -22
42 11 -56 6 -4 9 24 16
24 -22 -4 23 0 32 11 16
9 -28 -28 -69 8 11 -1 21
27 35 29 13 -43 -28 43 1
6 33 -11 28 4 -13 21 1

recog/cnn/conv2d_1/Conv2D i1 [96, 3, 3, 64]
00000000: ef1b dfdb dd01 f5d6 1bf9 fe0c e4f5 1f1d
00000010: eff9 ff1f 0725 3023 03ec f907 c705 06d8
00000020: 110c dd04 f702 08cf eb0a 0211 d730 1ff3
00000030: ee1c 211c 110d 5324 f31b 19fc 07e6 05ea
00000040: 0833 f0b4 110b f9d5 12f3 0221 080e 0109
00000050: e4dc f127 060b 4e36 e3fe d9f7 caed 1be8
00000060: 13f0 e514 dc11 01e9 ece9 0403 c9e6 0dfe
00000070: e910 28ee 01fe 012f 181a 0618 dcea e603
00000080: 1937 d4e7 2d15 1217 1d38 2e2b 1c04 190e
00000090: ed0e 071a 1ef6 4d16 ea2d cdea e5de 1327
000000a0: 38e1 d0ed f405 ca11 f5f9 0e1c 19d5 150e
000000b0: ef25 0905 0c14 1525 3bfc ec26 06fd d713
000000c0: f4fd d12c bffc 011c ec1b efed cfec cc0d
000000d0: e8f6 3027 3034 fe19 08e6 dee4 fd17 f7e4
000000e0: 0d1f ef05 e5f3 02cc 1e1e 05ca fd35 1c12
000000f0: eee2 ff10 f910 2025 0d58 e8e8 e935 30cf
-17 27 -33 -37 -35 1 -11 -42
27 -7 -2 12 -28 -11 31 29
-17 -7 -1 31 7 37 48 35
3 -20 -7 7 -57 5 6 -40
17 12 -35 4 -9 2 8 -49
-21 10 2 17 -41 48 31 -13
-18 28 33 28 17 13 83 36
-13 27 25 -4 7 -26 5 -22
8 51 -16 -76 17 11 -7 -43
18 -13 2 33 8 14 1 9
-28 -36 -15 39 6 11 78 54
-29 -2 -39 -9 -54 -19 27 -24
19 -16 -27 20 -36 17 1 -23
-20 -23 4 3 -55 -26 13 -2
-23 16 40 -18 1 -2 1 47
24 26 6 24 -36 -22 -26 3
25 55 -44 -25 45 21 18 23
29 56 46 43 28 4 25 14
-19 14 7 26 30 -10 77 22
-22 45 -51 -22 -27 -34 19 39
56 -31 -48 -19 -12 5 -54 17
-11 -7 14 28 25 -43 21 14
-17 37 9 5 12 20 21 37
59 -4 -20 38 6 -3 -41 19
-12 -3 -47 44 -65 -4 1 28
-20 27 -17 -19 -49 -20 -52 13
-24 -10 48 39 48 52 -2 25
8 -26 -34 -28 -3 23 -9 -28
13 31 -17 5 -27 -13 2 -52
30 30 5 -54 -3 53 28 18
-18 -30 -1 16 -7 16 32 37
13 88 -24 -24 -23 53 48 -49

recog/cnn/conv2d_2/Conv2D i1 [156, 3, 3, 96]
00000000: fb11 0608 ec0e 0a01 d40e f607 2404 edcb
00000010: 1714 02ec 04e1 f915 e907 1002 f8ef 0a0d
00000020: e407 ea02 02e7 16f2 f419 e90f e607 d5e0
00000030: ef12 0600 b5ef 0ef6 0511 da07 e736 ff00
00000040: fed5 df1d f2f3 0e0c eb1e 1b0a e548 eff3
00000050: 0b02 f80f 12ef 01e1 14ff 01df b6f2 ce2a
00000060: 0505 ee1e dd16 41f7 e3f7 e2e3 caf5 f5fd
00000070: 0af6 f418 0eeb 1d07 ece8 fd2f eb26 e6df
00000080: ef0e 3fe4 edeb 0611 eb1c eafb 1ee4 1af3
00000090: 1f00 fde2 fe1c e4f0 eb29 ed9b 1ddc 2102
000000a0: f6f2 f5e6 eb10 da21 1909 dceb 181a f220
000000b0: 230a ec22 f9f6 f619 1df3 1408 010d 08fb
000000c0: 38fc 084f 1114 11de 0cec 0e16 e7ed ef11
000000d0: e2e7 eff3 e80a 04da 24e2 c0eb fee1 09e9
000000e0: e405 e70a d918 f718 fb14 f2ee 0cf9 1418
000000f0: 1622 40f7 e503 2106 01d4 09fa f2ea f50f
-5 17 6 8 -20 14 10 1
-44 14 -10 7 36 4 -19 -53
23 20 2 -20 4 -31 -7 21
-23 7 16 2 -8 -17 10 13
-28 7 -22 2 2 -25 22 -14
-12 25 -23 15 -26 7 -43 -32
-17 18 6 0 -75 -17 14 -10
5 17 -38 7 -25 54 -1 0
-2 -43 -33 29 -14 -13 14 12
-21 30 27 10 -27 72 -17 -13
11 2 -8 15 18 -17 1 -31
20 -1 1 -33 -74 -14 -50 42
5 5 -18 30 -35 22 65 -9
-29 -9 -30 -29 -54 -11 -11 -3
10 -10 -12 24 14 -21 29 7
-20 -24 -3 47 -21 38 -26 -33
-17 14 63 -28 -19 -21 6 17
-21 28 -22 -5 30 -28 26 -13
31 0 -3 -30 -2 28 -28 -16
-21 41 -19 -101 29 -36 33 2
-10 -14 -11 -26 -21 16 -38 33
25 9 -36 -21 24 26 -14 32
35 10 -20 34 -7 -10 -10 25
29 -13 20 8 1 13 8 -5
56 -4 8 79 17 20 17 -34
12 -20 14 22 -25 -19 -17 17
-30 -25 -17 -13 -24 10 4 -38
36 -30 -64 -21 -2 -31 9 -23
-28 5 -25 10 -39 24 -9 24
-5 20 -14 -18 12 -7 20 24
22 34 64 -9 -27 3 33 6
1 -44 9 -6 -14 -22 -11 15

recog/cnn/conv2d_3/Conv2D i1 [224, 3, 3, 156]
00000000: 0b0c 0c2d 210c b4f3 f020 0bfc 000b 13f6
00000010: 0d0f 21e9 e2f7 fa18 d317 fbf4 d6d8 0122
00000020: e3db f71c f0e8 e825 fdeb f8ce e6e1 ee04
00000030: cbcc 2612 0cfd e214 0dff f9eb f3cf 1320
00000040: e5be c1cb cf2c fc06 18c5 bee8 0925 07f4
00000050: 10f6 01fa eee4 d9eb 1d3b eaf6 fa1a ec0a
00000060: f712 8207 061e c6c1 1bc1 f3e3 0f19 2efe
00000070: 0310 b4f6 d225 290e c9de d7c3 1af2 d1d5
00000080: 0a00 0ad0 07da fb05 fbe4 f0d5 e00d dffb
00000090: ea85 0218 020b 02fa dea8 0eee 0614 0c28
000000a0: 12f7 bc15 f9ef fedc 0426 0f26 faff e81b
000000b0: f4f8 f4ed dc40 0222 1b0e fbeb ecfb c704
000000c0: d7f5 df0a ecd1 efea ffd7 1611 ecd6 09f5
000000d0: f318 1925 e1fc d6c4 f6fc 0e0c 28c0 ab0b
000000e0: e612 f5f7 12c7 edf1 232b 0410 fcfd 1efe
000000f0: e010 080b 1917 fee4 fb15 ff1f e527 9314
11 12 12 45 33 12 -76 -13
-16 32 11 -4 0 11 19 -10
13 15 33 -23 -30 -9 -6 24
-45 23 -5 -12 -42 -40 1 34
-29 -37 -9 28 -16 -24 -24 37
-3 -21 -8 -50 -26 -31 -18 4
-53 -52 38 18 12 -3 -30 20
13 -1 -7 -21 -13 -49 19 32
-27 -66 -63 -53 -49 44 -4 6
24 -59 -66 -24 9 37 7 -12
16 -10 1 -6 -18 -28 -39 -21
29 59 -22 -10 -6 26 -20 10
-9 18 -126 7 6 30 -58 -63
27 -63 -13 -29 15 25 46 -2
3 16 -76 -10 -46 37 41 14
-55 -34 -41 -61 26 -14 -47 -43
10 0 10 -48 7 -38 -5 5
-5 -28 -16 -43 -32 13 -33 -5
-22 -123 2 24 2 11 2 -6
-34 -88 14 -18 6 20 12 40
18 -9 -68 21 -7 -17 -2 -36
4 38 15 38 -6 -1 -24 27
-12 -8 -12 -19 -36 64 2 34
27 14 -5 -21 -20 -5 -57 4
-41 -11 -33 10 -20 -47 -17 -22
-1 -41 22 17 -20 -42 9 -11
-13 24 25 37 -31 -4 -42 -60
-10 -4 14 12 40 -64 -85 11
-26 18 -11 -9 18 -57 -19 -15
35 43 4 16 -4 -3 30 -2
-32 16 8 11 25 23 -2 -28
-5 21 -1 31 -27 39 -109 20

recog/cnn/conv2d_4/Conv2D i1 [164, 1, 1, 320]
00000000: efe8 23ff 0217 d1ed 3512 e2db 0217 fdd4
00000010: d8f7 14dd f2ea e027 0a1e 227f 091e fcf6
00000020: dc0d 19e7 1901 0505 0c14 daf1 09f9 def8
00000030: 160b fb0d b013 f50f e9ec 15fa 11f9 c7fc
00000040: e325 f7f4 1819 07fa d8e4 ecf6 f503 e9e9
00000050: ebff 0531 ec12 0dde 2e04 f511 ff04 1bfb
00000060: de33 22f2 24f5 05f7 ff4a 0bfb ed0d f8fd
00000070: 20f3 dfeb e6e1 ece2 0115 22ce e8f5 07f9
00000080: 20e5 4ffa f8e1 fee3 e103 f0df fd07 e021
00000090: 05ec 1507 1102 0bee e514 fb0a f912 2bd9
000000a0: d513 05f4 2216 e801 e3de e50c 2112 e5e0
000000b0: 16f8 e1e3 d807 4308 0013 f0f6 2815 f105
000000c0: e9d2 e6d2 27f6 10eb 1af2 ce05 08eb fe16
000000d0: 1def 69e9 f704 10d3 1611 53d5 04fc 46eb
000000e0: 14e0 0000 fae1 fbef fdea efdb f9eb 13d3
000000f0: 11e5 2fe3 2ff4 faef e90e e305 c1f3 fff2
-17 -24 35 -1 2 23 -47 -19
53 18 -30 -37 2 23 -3 -44
-40 -9 20 -35 -14 -22 -32 39
10 30 34 127 9 30 -4 -10
-36 13 25 -25 25 1 5 5
12 20 -38 -15 9 -7 -34 -8
22 11 -5 13 -80 19 -11 15
-23 -20 21 -6 17 -7 -57 -4
-29 37 -9 -12 24 25 7 -6
-40 -28 -20 -10 -11 3 -23 -23
-21 -1 5 49 -20 18 13 -34
46 4 -11 17 -1 4 27 -5
-34 51 34 -14 36 -11 5 -9
-1 74 11 -5 -19 13 -8 -3
32 -13 -33 -21 -26 -31 -20 -30
1 21 34 -50 -24 -11 7 -7
32 -27 79 -6 -8 -31 -2 -29
-31 3 -16 -33 -3 7 -32 33
5 -20 21 7 17 2 11 -18
-27 20 -5 10 -7 18 43 -39
-43 19 5 -12 34 22 -24 1
-29 -34 -27 12 33 18 -27 -32
22 -8 -31 -29 -40 7 67 8
0 19 -16 -10 40 21 -15 5
-23 -46 -26 -46 39 -10 16 -21
26 -14 -50 5 8 -21 -2 22
29 -17 105 -23 -9 4 16 -45
22 17 83 -43 4 -4 70 -21
20 -32 0 0 -6 -31 -5 -17
-3 -22 -17 -37 -7 -21 19 -45
17 -27 47 -29 47 -12 -6 -17
-23 14 -29 5 -63 -13 -1 -14
