prebuilts/samsung/a73xqxx/system/saiv/textrecognition/stride/mSTR_Cyrillic_LSTM.tflite (tflite, 531632 bytes, 26 tensors)

dense/bias f4 [254]
-0.15965387 -0.09295019 -0.050351273 -0.19114223 -0.20438406 -0.17203124 -0.27270725 -0.30975556
-0.16822293 -0.18538217 -0.047151346 -0.21224837 -0.24435969 -0.1322056 0.0298783 -0.1077656
-0.17640024 -0.16689743 0.008066942 -0.22898118 -0.24938053 -0.17256817 -0.17810254 -0.1053184
-0.088719815 -0.14873913 -0.2972267 -0.13664736 0.0068705804 0.1398726 -0.16061859 -0.30710065
-0.15147503 -0.29253614 -0.12198849 -0.4519719 -0.08959832 -0.16326292 -0.10914419 -0.16145964
-0.0058113653 -0.15948448 -0.19552931 -0.13324486 -0.11905407 -0.27501732 -0.20392281 -0.11683683
-0.16200994 -0.14221282 -0.22160241 -0.096333794 -0.14415956 -0.03574127 -0.08603367 -0.13928315
-0.19873387 -0.17984948 -0.22224924 -0.054429837 -0.18946894 -0.25063092 -0.21947615 -0.4441311
-0.2586117 -0.18192284 -0.35501227 -0.2809412 -0.27361956 -0.23411176 -0.44688392 -0.3050239
-0.38239995 -0.32216567 -0.1813736 -0.16316494 -0.2458177 -0.21281292 -0.066037096 -0.052783802
-0.24900168 -0.19096442 -0.3096642 -0.25400475 -0.19083908 -0.27386537 -0.3682982 -0.2920994
-0.2532239 -0.25603172 -0.14219248 -0.29939833 -0.1697189 -0.4220857 -0.24570887 -0.29846603
-0.42902368 -0.4108271 -0.78148186 0.01622203 -0.28385994 -0.2345864 -0.05250524 -0.5446139
-0.684399 -0.074639015 0.011096158 -0.026880773 -0.26081145 -0.259385 -0.20961015 -0.15762083
-0.26023945 -0.21523266 -0.24643135 -0.2442399 -0.21528755 -0.16259643 -0.15969148 -0.28461593
-0.3493748 -0.19863491 -0.09903886 -0.29075727 -0.2241018 -0.324224 -0.28118023 -0.30766484
-0.31831262 -0.3071379 -0.23443626 -0.07438789 -0.30831075 -0.25883314 -0.0941238 -0.3991773
-0.15281692 -0.25095144 -0.26777583 -0.23454013 -0.034689113 -0.23783419 -0.0880647 -0.49437556
-0.22339745 -0.15368468 -0.119072676 -0.16900675 -0.22151004 -0.25984526 -0.15595253 -0.40966454
-0.1890063 -0.08730857 -0.14777337 -0.13627791 -0.10974875 -0.11359969 -0.37760484 -0.31581432
-0.23526016 -0.1325635 -0.3149831 -0.23949596 -0.11322538 -0.21852683 -0.28619266 -0.19812435
-0.17652942 -0.19582415 -0.019674763 -0.23333351 -0.13752903 -0.2468082 -0.18215418 -0.26934037
-0.091406785 -0.31524983 -0.262951 0.023450362 -0.3518181 -0.21824498 -0.0740268 -0.2698666
-0.09014874 -0.316848 -0.2053993 -0.23644204 -0.16225162 -0.31291115 -0.2454562 -0.39204845
-0.27916992 -0.22156848 -0.08943092 -0.11782422 -0.4193732 -0.013759568 -0.2800609 -0.2627791
-0.16150588 -0.36153343 -0.36786252 -0.3373526 -0.35024783 -0.35751846 -0.33387658 -0.32231858
-0.325444 -0.31339622 -0.38406852 -0.4109997 -0.34945065 -0.37752992 -0.3698839 -0.3611291
-0.35180822 -0.3074676 -0.3459696 -0.38797754 -0.38856003 -0.34274775 -0.36023942 -0.9872397
-0.34150395 -0.35409167 -0.34699824 -0.33121037 -0.35697547 -0.34052873 -0.31154868 -0.33239216
-0.32991782 -0.3694016 -0.44731417 -0.3659136 -0.39124614 -0.39616862 -0.3673309 -0.38807258
-0.3474154 -0.3466032 -0.41374445 -0.45612973 -0.33204937 -0.340742 -1.1196966 -0.3731775
-0.3613831 -0.34516752 -0.34000975 -0.34250104 -0.08421102 0.038560707
00000000: 4e7c 23be ab5c bebd 233d 4ebd caba 43be
00000010: 0e4a 51be f528 30be 49a0 8bbe 4898 9ebe
00000020: a242 2cbe d3d4 3dbe c521 41bd a357 59be
00000030: 6d39 7abe e860 07be 56c3 f43c 36b4 dcbd
00000040: 44a2 34be 29e7 2abe 352b 043c 0b7a 6abe
00000050: 9c5d 7fbe b6b5 30be 8360 36be 2cb1 d7bd
00000060: bcb2 b5bd 124f 18be 192e 98be 49ed 0bbe
00000070: 9b22 e13b c33a 0f3e 3379 24be 4c3c 9dbe
00000080: 451c 1bbe 4cc7 95be 1ad5 f9bd dc68 e7be
00000090: 537f b7bd 652e 27be fd86 dfbd ad55 25be
000000a0: 446d bebb e64f 23be d638 48be 5771 08be
000000b0: 9fd2 f3bd 12cf 8cbe 24d1 50be 2648 efbd
000000c0: efe5 25be 3da0 11be beeb 62be a74a c5bd
000000d0: 909e 13be 7065 12bd 6c32 b0bd 3ea0 0ebe
000000e0: e480 4bbe 762a 38be 4e95 63be d2f1 5ebd
000000f0: 2504 42be b252 80be 5bbe 60be 2765 e3be
00000100: c168 84be fb49 3abe 2bc4 b5be 86d7 8fbe
00000110: dd17 8cbe feba 6fbe f8cd e4be 182c 9cbe
00000120: edc9 c3be e6f2 a4be 00ba 39be b614 27be
00000130: a3b7 7bbe a1eb 59be 753e 87bd d433 58bd
00000140: 4cfa 7ebe 2d8c 43be 4e8c 9ebe e90c 82be
00000150: 526b 43be 1538 8cbe 9591 bcbe 0d8e 95be
00000160: 90a6 81be 9716 83be e89a 11be bd4a 99be
00000170: cbca 2dbe 9e1b d8be 1b9b 7bbe 8ad0 98be
00000180: fea8 dbbe ee57 d2be 320f 48bf 10e4 843c
00000190: 1756 91be 6b37 70be bc0f 57bd d16b 0bbf
000001a0: c634 2fbf 57dc 98bd a9cc 353c 1135 dcbc
000001b0: 1489 85be 1cce 84be 0ba4 56be 5b67 21be
000001c0: 1b3e 85be f365 5cbe 8058 7cbe 061a 7abe
000001d0: 5774 5cbe ae7f 26be 2a86 23be 2eb9 91be
000001e0: 41e1 b2be f366 4bbe e3d4 cabd 23de 94be
000001f0: f17a 65be b000 a6be dbf6 8fbe 3f86 9dbe
00000200: dff9 a2be 2e41 9dbe 0f10 70be ae58 98bd
00000210: e8da 9dbe c785 84be fbc3 c0bd f860 ccbe
00000220: 0a7c 1cbe b57c 80be ea19 89be 4a2b 70be
00000230: 2c16 0ebd ce8a 73be 445b b4bd cb1e fdbe
00000240: 4dc2 64be 845f 1dbe 60dc f3bd 1b10 2dbe
00000250: 87d3 62be 700a 85be 05b2 1fbe 8dbf d1be
00000260: de8a 41be d6ce b2bd e751 17be 708c 0bbe
00000270: f4c3 e0bd f4a6 e8bd 6c55 c1be 6ab2 a1be
00000280: 0ae8 70be babe 07be 7745 a1be 6e3e 75be
00000290: b5e2 e7bd 7fc5 5fbe d887 92be 1ce1 4abe
000002a0: 21c4 34be 2086 48be f82c a1bc fbee 6ebe
000002b0: 69d4 0cbe 4abb 7cbe a086 3abe fbe6 89be
000002c0: 7b33 bbbd 6d68 a1be 83a1 86be f91a c03c
000002d0: 8121 b4be 9d7b 5fbe 5d9b 97bd f42b 8abe
000002e0: e79f b8bd e739 a2be 3254 52be dd1d 72be
000002f0: 4a25 26be e435 a0be df58 7bbe 93ba c8be
00000300: 5cef 8ebe d9e2 62be 8f27 b7bd d34d f1bd
00000310: 16b8 d6be d06f 61bc 2464 8fbe fb8a 86be
00000320: cc61 25be e91a b9be 7a58 bcbe 7bb9 acbe
00000330: af53 b3be a90c b7be dff1 aabe f106 a5be
00000340: 99a0 a6be 7875 a0be a1a4 c4be 8d6e d2be
00000350: 32eb b2be 9a4b c1be 6c61 bdbe eae5 b8be
00000360: 3520 b4be 656c 9dbe ed22 b1be fea4 c6be
00000370: 57f1 c6be a27c afbe 4d71 b8be bebb 7cbf
00000380: 9bd9 aebe 814b b5be c1a9 b1be 6894 a9be
00000390: 7dc5 b6be c859 aebe 4f83 9fbe 4e2f aabe
000003a0: fdea a8be 3522 bdbe 5d06 e5be 0759 bbbe
000003b0: 6a51 c8be 9dd6 cabe cc12 bcbe 73b1 c6be
000003c0: 6ee0 b1be fa75 b1be 50d6 d3be d689 e9be
000003d0: 6002 aabe bc75 aebe 3852 8fbf 1f11 bfbe
000003e0: 3507 b9be ccb9 b0be c215 aebe 4c5c afbe
000003f0: d476 acbd d5f1 1d3d

recog/birnn/bidirectional_rnn/bw/rnn3/cell_bias f4 [164]
-0.053788155 0.022078132 -0.023206443 -0.07212631 -0.025815418 0.049000464 0.02583733 -0.018682875
-0.057938058 -0.033507537 -0.01631265 0.009650478 -0.074062824 0.015762469 0.17837371 0.009013405
-0.053013105 -0.054715723 0.04283706 0.040748235 -0.026504245 0.07403925 0.008666202 -0.012731148
-0.0055607664 0.038157858 -0.04095633 -0.00838481 -0.05677274 0.0060957726 0.0045142407 -0.01829157
-0.0081008 0.06882277 -0.055354927 -0.0011729996 0.056191266 0.042678684 0.04320069 -0.06876749
0.011448426 -0.01986778 0.01006483 0.097860724 -0.027493583 0.05040037 0.045703836 -0.039599247
0.012401341 -0.00064100436 0.02147392 0.044174425 -0.023918863 0.027163457 -0.0046113664 0.019661102
-0.05092794 0.007990587 -0.021372454 -0.09789248 -0.015169665 0.0053585707 0.0051564765 -0.006927501
0.033197634 -0.022573013 0.006871306 0.035753895 -0.0055640456 -0.10692058 0.08008421 0.046420738
-0.12594531 0.03223909 0.0025146496 0.05137399 -0.03334601 0.014108455 -0.014872366 0.0024643834
0.009022032 -0.1185216 -0.0464032 -0.07054771 0.054891568 -0.0006248431 -0.0109209195 0.13517514
0.06784256 0.016291618 0.0814715 0.1317229 -0.056442883 0.10150436 -0.009225913 -0.020673297
0.012706298 0.012719444 -0.0263556 -0.048578504 0.034080777 0.010465177 -0.046311658 0.004286696
0.019684175 -0.0018406225 -0.1078141 -0.0470353 -0.0327503 -0.02949082 -0.100848354 -0.030815545
-0.07185136 0.011350487 0.039665256 0.07641782 0.027463 -0.028592594 -0.032348372 0.009436185
-0.033641763 0.028402323 -0.01504969 0.04290802 0.08262638 -0.042519536 0.24845856 0.11062347
-0.02795257 -0.08295837 0.005570542 -0.0040430548 0.013821362 0.08278307 -0.01655714 0.008577689
-0.09731747 -0.033381626 0.051896863 0.048886225 -0.004535072 0.07877707 0.058300637 0.011352107
0.009673899 -0.007857201 0.040582985 0.0007900679 0.007393151 0.05364999 0.011467375 0.004337998
0.023290675 -0.08304766 0.06992782 -0.008551044 0.14580885 0.0017196363 0.08611398 0.031745873
-0.013055541 0.08100212 -0.017109089 -0.03939283
00000000: f850 5cbd 33dd b43c 701b bebc f5b6 93bd
00000010: db7a d3bc b6b4 483d cfa8 d33c d40c 99bc
00000020: 7550 6dbd 333f 09bd 1ba2 85bc 0a1d 1e3c
00000030: 40ae 97bd 4b20 813c 99a7 363e f6ac 133c
00000040: 4524 59bd 981d 60bd ea75 2f3d 9fe7 263d
00000050: 6e1f d9bc e4a1 973d b0fc 0d3c 4e96 50bc
00000060: 1737 b6bb 6a4b 1c3d d3c1 27bd 7160 09bc
00000070: 888a 68bd 0cbf c73b 32ec 933b 34d8 95bc
00000080: 38b9 04bc f4f2 8c3d d9bb 62bd 56bf 99ba
00000090: d028 663d d8cf 2e3d 35f3 303d f8d5 8cbd
000000a0: 2e92 3b3c c1c1 a2bc f5e6 243c 346b c83d
000000b0: 393a e1bc 9e70 4e3d f233 3b3d d232 22bd
000000c0: ff2e 4b3c 1309 28ba 13ea af3c 3ef0 343d
000000d0: 7ef1 c3bc e685 de3c f21a 97bb 5210 a13c
000000e0: d199 50bd f3ea 023c 4915 afbc da7b c8bd
000000f0: 308a 78bc f396 af3b a9f7 a83b 1700 e3bb
00000100: 3efa 073d 0aeb b8bc b128 e13b ad72 123d
00000110: 9952 b6bb 2df9 dabd 3103 a43d ac23 3e3d
00000120: cff7 00be 230d 043d d2cc 243b 886d 523d
00000130: d395 08bd 2627 673c 39ab 73bc 7e81 213b
00000140: 25d1 133c 74bb f2bd 4811 3ebd 517b 90bd
00000150: fbd5 603d 83cc 23ba a8ed 32bc 5a6b 0a3e
00000160: 0af1 8a3d 0076 853c 88da a63d 5ee2 063e
00000170: a730 67bd 85e1 cf3d 4928 17bc 0c5b a9bc
00000180: 142e 503c 3765 503c b3e7 d7bc 41fa 46bd
00000190: 4998 0b3d 2276 2b3c 4bb1 3dbd 6a77 8c3b
000001a0: b540 a13c 0b41 f1ba a4cd dcbd 16a8 40bd
000001b0: 2e25 06bd bb96 f1bc 9589 cebd e270 fcbc
000001c0: ce26 93bd 65f7 393c 0978 223d f280 9c3d
000001d0: 16fa e03c 043b eabc ba7f 04bd 3a9a 1a3c
000001e0: f2cb 09bd fdab e83c fa92 76bc 52c0 2f3d
000001f0: 0538 a93d f728 2ebd ec6b 7e3e 8f8e e23d
00000200: cafc e4bc 14e6 a9bd 1889 b63b 9a7b 84bb
00000210: fe72 623c 2c8a a93d d7a2 87bc 6f89 0c3c
00000220: 624e c7bd 2cbb 08bd ce91 543d ec3c 483d
00000230: f19a 94bb df55 a13d a6cc 6e3d 30fe 393c
00000240: 467f 1e3c 7dbb 00bc 583a 263d 8f1c 4f3a
00000250: 3f42 f23b 18c0 5b3d a8e1 3b3c c425 8e3b
00000260: 16cc be3c e414 aabd 5136 8f3d ae19 0cbc
00000270: ea4e 153e 6b65 e13a 875c b03d f607 023d
00000280: e8e6 55bc 71e4 a53d 5c28 8cbc 605a 21bd

recog/birnn/bidirectional_rnn/bw/rnn3/cell_to_cell_w i1 [164, 164] scale=0.0075126253 zero_point=0
-0.022537876 -0.06761363 0.0901515 -0.052588377 0.07512625 -0.022537876 -0.04507575 0.0
0.21786614 0.16527775 0.19532827 -0.030050501 -0.1502525 -0.23289138 -0.14273988 0.22537875
-0.105176754 0.105176754 -0.022537876 -0.120202005 0.16527775 0.12771463 0.082638875 0.06761363
0.060101002 -0.20284088 0.300505 0.112689376 0.060101002 0.022537876 -0.04507575 0.015025251
0.15776514 0.19532827 0.052588377 -0.12771463 -0.07512625 -0.015025251 0.060101002 -0.13522726
-0.13522726 -0.105176754 -0.07512625 0.0075126253 -0.16527775 -0.015025251 -0.27796713 0.120202005
0.23289138 0.07512625 -0.105176754 -0.31553027 -0.082638875 -0.022537876 0.15776514 0.0
0.022537876 0.037563127 0.07512625 -0.12771463 0.09766413 0.16527775 0.060101002 0.06761363
0.015025251 -0.18781564 -0.04507575 -0.120202005 -0.0075126253 0.037563127 0.24791664 -0.030050501
-0.120202005 -0.022537876 0.037563127 -0.015025251 -0.052588377 -0.015025251 -0.04507575 0.04507575
-0.17279038 0.06761363 0.07512625 0.18781564 0.06761363 -0.06761363 -0.0901515 0.052588377
-0.19532827 -0.105176754 -0.04507575 0.14273988 -0.04507575 0.105176754 0.17279038 0.06761363
-0.022537876 0.07512625 -0.06761363 0.17279038 0.18781564 0.21786614 0.0075126253 0.022537876
-0.105176754 -0.18781564 0.07512625 -0.14273988 -0.12771463 0.1502525 0.022537876 0.12771463
-0.052588377 0.015025251 -0.022537876 -0.052588377 -0.0075126253 -0.060101002 0.0075126253 0.015025251
-0.082638875 0.15776514 0.120202005 -0.09766413 -0.21786614 -0.14273988 0.0075126253 -0.24040401
0.21786614 0.17279038 -0.16527775 0.112689376 0.3530934 -0.09766413 0.030050501 0.13522726
0.082638875 0.022537876 -0.22537875 -0.082638875 0.06761363 0.04507575 -0.060101002 -0.04507575
-0.022537876 -0.037563127 -0.060101002 0.15776514 0.17279038 -0.21035351 0.16527775 0.06761363
-0.112689376 0.07512625 0.112689376 0.07512625 0.105176754 -0.17279038 -0.15776514 0.030050501
0.015025251 -0.0901515 -0.15776514 0.105176754 -0.27796713 0.0901515 0.037563127 0.0
-0.180303 0.12771463 -0.105176754 0.09766413 0.015025251 0.082638875 -0.105176754 0.09766413
-0.09766413 -0.1502525 0.060101002 0.015025251 -0.052588377 0.07512625 0.0 0.18781564
0.04507575 -0.037563127 0.037563127 0.052588377 -0.24791664 0.20284088 -0.1502525 -0.060101002
0.13522726 -0.06761363 0.0 -0.04507575 0.082638875 -0.112689376 0.13522726 -0.15776514
0.24040401 -0.29299238 -0.052588377 0.082638875 0.105176754 0.04507575 -0.037563127 0.06761363
0.105176754 0.0075126253 -0.1502525 0.112689376 -0.28547975 -0.0901515 -0.0901515 0.037563127
-0.0075126253 -0.14273988 -0.052588377 0.052588377 0.06761363 -0.04507575 -0.082638875 0.07512625
0.060101002 0.34558076 -0.300505 -0.022537876 -0.015025251 0.04507575 0.07512625 0.082638875
-0.18781564 -0.105176754 0.015025251 0.09766413 -0.030050501 0.060101002 0.037563127 -0.07512625
0.022537876 0.060101002 0.14273988 -0.0901515 -0.16527775 0.180303 -0.112689376 -0.18781564
-0.04507575 0.0075126253 0.030050501 0.105176754 -0.0901515 -0.022537876 -0.06761363 -0.0075126253
00000000: fdf7 0cf9 0afd fa00 1d16 1afc ece1 ed1e
00000010: f20e fdf0 1611 0b09 08e5 280f 0803 fa02
00000020: 151a 07ef f6fe 08ee eef2 f601 eafe db10
00000030: 1f0a f2d6 f5fd 1500 0305 0aef 0d16 0809
00000040: 02e7 faf0 ff05 21fc f0fd 05fe f9fe fa06
00000050: e909 0a19 09f7 f407 e6f2 fa13 fa0e 1709
00000060: fd0a f717 191d 0103 f2e7 0aed ef14 0311
00000070: f902 fdf9 fff8 0102 f515 10f3 e3ed 01e0
00000080: 1d17 ea0f 2ff3 0412 0b03 e2f5 0906 f8fa
00000090: fdfb f815 17e4 1609 f10a 0f0a 0ee9 eb04
000000a0: 02f4 eb0e db0c 0500 e811 f20d 020b f20d
000000b0: f3ec 0802 f90a 0019 06fb 0507 df1b ecf8
000000c0: 12f7 00fa 0bf1 12eb 20d9 f90b 0e06 fb09
000000d0: 0e01 ec0f daf4 f405 ffed f907 09fa f50a
000000e0: 082e d8fd fe06 0a0b e7f2 020d fc08 05f6
000000f0: 0308 13f4 ea18 f1e7 fa01 040e f4fd f7ff

recog/birnn/bidirectional_rnn/bw/rnn3/cell_to_forget_w i1 [164, 164] scale=0.0094905095 zero_point=0
0.3891109 -0.104395606 -0.0094905095 -0.066433564 0.037962038 -0.0094905095 -0.02847153 -0.20879121
-0.0094905095 0.047452547 -0.17082918 -0.104395606 -0.09490509 -0.17082918 -0.104395606 -0.0094905095
-0.05694306 -0.047452547 -0.33216783 0.23726274 -0.11388612 -0.08541459 0.05694306 0.05694306
-0.018981019 0.0094905095 -0.22777224 0.13286713 0.24675325 0.14235765 -0.11388612 -0.0094905095
-0.42707294 -0.20879121 0.12337662 -0.3226773 0.18031968 -0.22777224 -0.09490509 0.14235765
0.25624377 -0.047452547 -0.018981019 0.037962038 0.08541459 -0.104395606 -0.13286713 0.3036963
-0.104395606 -0.05694306 0.09490509 0.0 -0.08541459 0.066433564 0.16133866 0.02847153
-0.0094905095 -0.0094905095 0.09490509 -0.13286713 0.018981019 0.037962038 -0.05694306 0.18981019
-0.075924076 -0.13286713 0.0 -0.037962038 -0.037962038 -0.12337662 0.104395606 0.104395606
-0.15184815 -0.05694306 0.13286713 0.16133866 -0.075924076 0.09490509 0.0094905095 0.104395606
-0.31318682 0.08541459 0.14235765 0.12337662 -0.14235765 -0.3036963 0.018981019 0.047452547
-0.05694306 0.047452547 0.12337662 -0.25624377 0.08541459 -0.18981019 0.15184815 0.08541459
-0.08541459 -0.12337662 -0.16133866 -0.13286713 -0.037962038 -0.066433564 0.066433564 0.14235765
0.066433564 0.13286713 0.037962038 0.11388612 -0.14235765 -0.09490509 0.17082918 -0.08541459
0.066433564 0.13286713 -0.075924076 0.1993007 0.037962038 0.02847153 -0.11388612 0.18031968
0.36063936 0.08541459 -0.14235765 0.18031968 0.066433564 0.018981019 0.08541459 -0.13286713
0.0 0.18031968 0.18981019 -0.05694306 0.0094905095 0.037962038 0.12337662 -0.037962038
-0.02847153 0.066433564 -0.05694306 -0.02847153 0.047452547 -0.05694306 -0.104395606 0.037962038
0.22777224 0.15184815 0.0 -0.12337662 0.21828172 0.0 0.0094905095 0.20879121
0.11388612 -0.08541459 0.0 -0.037962038 -0.066433564 -0.104395606 0.02847153 0.08541459
-0.037962038 -0.047452547 -0.15184815 0.18031968 0.12337662 -0.104395606 -0.18981019 -0.0094905095
-0.037962038 0.02847153 0.075924076 -0.08541459 0.23726274 -0.1993007 0.44605395 -0.02847153
-0.18981019 -0.17082918 0.018981019 0.09490509 -0.05694306 0.104395606 -0.11388612 -0.23726274
-0.0094905095 0.047452547 -0.20879121 -0.20879121 0.05694306 -0.37012988 0.18981019 -0.13286713
0.066433564 0.13286713 0.0094905095 0.104395606 -0.02847153 0.0094905095 -0.20879121 0.13286713
-0.075924076 0.15184815 -0.018981019 -0.09490509 0.26573426 -0.018981019 0.21828172 -0.018981019
-0.26573426 0.12337662 0.0094905095 -0.17082918 -0.16133866 -0.29420578 -0.17082918 -0.05694306
0.05694306 0.047452547 0.36063936 0.047452547 -0.066433564 -0.12337662 -0.09490509 0.047452547
-0.075924076 -0.2847153 -0.104395606 0.09490509 -0.02847153 0.23726274 0.16133866 -0.037962038
0.2847153 -0.17082918 -0.037962038 -0.11388612 0.21828172 0.104395606 -0.1993007 0.17082918
-0.047452547 0.14235765 -0.037962038 0.047452547 0.075924076 -0.13286713 -0.037962038 -0.14235765
0.075924076 -0.09490509 -0.09490509 -0.18981019 -0.0094905095 0.26573426 0.0094905095 0.05694306
00000000: 29f5 fff9 04ff fdea ff05 eef5 f6ee f5ff
00000010: fafb dd19 f4f7 0606 fe01 e80e 1a0f f4ff
00000020: d3ea 0dde 13e8 f60f 1bfb fe04 09f5 f220
00000030: f5fa 0a00 f707 1103 ffff 0af2 0204 fa14
00000040: f8f2 00fc fcf3 0b0b f0fa 0e11 f80a 010b
00000050: df09 0f0d f1e0 0205 fa05 0de5 09ec 1009
00000060: f7f3 eff2 fcf9 070f 070e 040c f1f6 12f7
00000070: 070e f815 0403 f413 2609 f113 0702 09f2
00000080: 0013 14fa 0104 0dfc fd07 fafd 05fa f504
00000090: 1810 00f3 1700 0116 0cf7 00fc f9f5 0309
000000a0: fcfb f013 0df5 ecff fc03 08f7 19eb 2ffd
000000b0: ecee 020a fa0b f4e7 ff05 eaea 06d9 14f2
000000c0: 070e 010b fd01 ea0e f810 fef6 1cfe 17fe
000000d0: e40d 01ee efe1 eefa 0605 2605 f9f3 f605
000000e0: f8e2 f50a fd19 11fc 1eee fcf4 170b eb12
000000f0: fb0f fc05 08f2 fcf1 08f6 f6ec ff1c 0106

recog/birnn/bidirectional_rnn/bw/rnn3/cell_to_input_w i1 [164, 164] scale=0.011046978 zero_point=0
-0.48606703 0.11046977 -0.14361072 -0.08837582 0.055234887 -0.13256374 -0.13256374 -0.04418791
-0.13256374 0.08837582 0.011046978 0.0994228 0.0994228 -0.055234887 0.23198654 -0.25408047
0.24303351 0.08837582 0.15465769 -0.20989257 0.13256374 -0.04418791 -0.28722143 0.0
0.22093955 0.08837582 0.51920795 -0.055234887 -0.25408047 0.15465769 -0.077328846 0.08837582
0.022093955 0.20989257 -0.18779862 0.08837582 -0.11046977 0.06628187 -0.37559724 -0.06628187
0.11046977 0.2982684 0.077328846 0.055234887 -0.0994228 0.0994228 -0.06628187 -0.14361072
-0.14361072 -0.022093955 -0.16570467 0.15465769 -0.20989257 -0.16570467 -0.033140935 0.26512748
0.022093955 -0.011046978 0.011046978 0.14361072 0.11046977 0.18779862 0.13256374 -0.08837582
-0.30931538 -0.04418791 -0.41978514 0.22093955 -0.33140934 -0.011046978 -0.13256374 -0.16570467
0.0994228 0.033140935 -0.2982684 0.08837582 0.15465769 0.033140935 -0.0994228 -0.08837582
-0.50816095 0.0994228 0.022093955 -0.022093955 0.08837582 0.033140935 0.022093955 -0.06628187
-0.04418791 0.18779862 -0.30931538 -0.13256374 0.011046978 -0.055234887 -0.13256374 0.0994228
0.3976912 -0.06628187 0.26512748 -0.08837582 -0.13256374 0.055234887 0.077328846 -0.11046977
0.28722143 -0.20989257 0.13256374 -0.22093955 0.11046977 0.1988456 -0.08837582 -0.22093955
-0.15465769 -0.24303351 0.04418791 0.20989257 -0.077328846 0.11046977 -0.022093955 0.022093955
0.0 -0.04418791 0.1988456 -0.17675164 0.055234887 -0.077328846 -0.0994228 -0.022093955
-0.011046978 -0.11046977 -0.27617446 0.06628187 0.20989257 -0.0994228 0.033140935 0.11046977
0.1988456 0.15465769 0.04418791 -0.011046978 0.06628187 0.1988456 0.1988456 0.077328846
-0.077328846 -0.16570467 0.23198654 0.20989257 -0.13256374 -0.14361072 0.18779862 -0.3424563
-0.12151676 -0.13256374 -0.04418791 0.15465769 -0.06628187 -0.28722143 0.32036236 -0.14361072
-0.022093955 0.11046977 -0.40873817 0.033140935 0.077328846 0.24303351 -0.0994228 0.0994228
-0.033140935 -0.13256374 0.16570467 0.15465769 0.033140935 0.18779862 0.04418791 -0.17675164
0.0 0.3866442 0.06628187 -0.11046977 0.497114 0.24303351 -0.22093955 0.033140935
-0.011046978 -0.06628187 -0.26512748 0.1988456 -0.16570467 0.12151676 -0.14361072 -0.1988456
0.23198654 0.30931538 -0.13256374 0.08837582 0.022093955 0.04418791 -0.033140935 0.0994228
0.18779862 -0.011046978 -0.12151676 -0.13256374 0.51920795 0.0994228 0.13256374 0.13256374
0.055234887 -0.16570467 0.022093955 -0.022093955 0.12151676 -0.077328846 -0.18779862 0.033140935
-0.011046978 -0.055234887 -0.06628187 0.022093955 -0.2982684 0.022093955 0.077328846 -0.27617446
-0.12151676 0.14361072 -0.16570467 -0.12151676 -0.26512748 -0.13256374 -0.04418791 -0.25408047
-0.11046977 0.17675164 0.04418791 0.13256374 -0.17675164 -0.18779862 0.18779862 0.0
0.08837582 -0.41978514 -0.08837582 -0.1988456 -0.24303351 0.14361072 0.18779862 0.17675164
0.011046978 0.15465769 0.25408047 -0.055234887 0.23198654 0.16570467 0.23198654 0.022093955
00000000: d40a f3f8 05f4 f4fc f408 0109 09fb 15e9
00000010: 1608 0eed 0cfc e600 1408 2ffb e90e f908
00000020: 0213 ef08 f606 defa 0a1b 0705 f709 faf3
00000030: f3fe f10e edf1 fd18 02ff 010d 0a11 0cf8
00000040: e4fc da14 e2ff f4f1 0903 e508 0e03 f7f8
00000050: d209 02fe 0803 02fa fc11 e4f4 01fb f409
00000060: 24fa 18f8 f405 07f6 1aed 0cec 0a12 f8ec
00000070: f2ea 0413 f90a fe02 00fc 12f0 05f9 f7fe
00000080: fff6 e706 13f7 030a 120e 04ff 0612 1207
00000090: f9f1 1513 f4f3 11e1 f5f4 fc0e fae6 1df3
000000a0: fe0a db03 0716 f709 fdf4 0f0e 0311 04f0
000000b0: 0023 06f6 2d16 ec03 fffa e812 f10b f3ee
000000c0: 151c f408 0204 fd09 11ff f5f4 2f09 0c0c
000000d0: 05f1 02fe 0bf9 ef03 fffb fa02 e502 07e7
000000e0: f50d f1f5 e8f4 fce9 f610 040c f0ef 1100
000000f0: 08da f8ee ea0d 1110 010e 17fb 150f 1502

recog/birnn/bidirectional_rnn/bw/rnn3/cell_to_output_w i1 [164, 164] scale=0.013482316 zero_point=0
0.06741158 -0.22919938 0.0 0.013482316 -0.026964633 -0.2426817 -0.013482316 -0.094376214
-0.026964633 0.0808939 -0.06741158 -0.04044695 0.12134085 -0.053929266 0.053929266 -0.053929266
-0.29661095 0.013482316 -0.55277497 0.36402255 0.04044695 0.04044695 0.094376214 -0.10785853
0.1617878 0.17527011 -0.053929266 -0.4044695 0.12134085 -0.31009328 -0.12134085 -0.12134085
0.10785853 -0.10785853 0.0 -0.41795182 0.06741158 -0.256164 -0.29661095 0.06741158
0.2426817 0.3235756 -0.2426817 0.06741158 0.04044695 0.026964633 -0.013482316 0.12134085
0.026964633 -0.2426817 0.20223475 0.053929266 0.14830548 -0.06741158 0.10785853 -0.1617878
0.053929266 -0.12134085 -0.10785853 -0.026964633 -0.13482316 0.10785853 -0.31009328 0.20223475
0.04044695 0.053929266 -0.37750486 0.12134085 0.3909872 -0.14830548 0.04044695 0.053929266
-0.12134085 0.013482316 -0.06741158 -0.10785853 0.06741158 0.256164 0.256164 0.026964633
-0.14830548 0.06741158 -0.17527011 0.10785853 0.13482316 -0.31009328 0.1617878 0.0
-0.22919938 0.29661095 0.21571706 -0.026964633 0.17527011 -0.33705792 0.0 0.3235756
0.04044695 0.013482316 -0.0808939 -0.20223475 0.026964633 0.13482316 -0.06741158 0.13482316
-0.10785853 -0.026964633 0.256164 0.35054022 0.026964633 -0.026964633 0.06741158 0.053929266
0.0808939 0.013482316 0.12134085 0.04044695 -0.1617878 0.14830548 -0.06741158 0.10785853
0.37750486 0.0808939 -0.013482316 0.013482316 -0.026964633 -0.026964633 -0.20223475 -0.18875243
-0.21571706 0.4044695 0.31009328 0.06741158 0.04044695 -0.26964632 0.26964632 -0.026964633
0.053929266 0.1617878 0.026964633 -0.29661095 0.053929266 -0.06741158 -0.094376214 -0.14830548
-0.12134085 -0.0808939 0.04044695 -0.10785853 -0.0808939 0.2426817 0.14830548 -0.094376214
0.094376214 0.04044695 -0.10785853 0.26964632 0.20223475 -0.0808939 -0.094376214 -0.06741158
0.04044695 0.0 -0.0808939 0.0 -0.14830548 -0.3909872 -0.21571706 0.31009328
0.0 -0.62018657 0.256164 -0.053929266 -0.026964633 0.36402255 0.5662573 -0.0808939
-0.20223475 0.053929266 -0.14830548 0.18875243 0.26964632 0.1617878 -0.256164 0.0
-0.26964632 -0.013482316 -0.04044695 0.12134085 -0.053929266 0.31009328 -0.06741158 -0.26964632
0.053929266 -0.2426817 0.14830548 -0.06741158 -0.29661095 0.10785853 -0.053929266 0.17527011
-0.12134085 0.026964633 -0.2426817 0.13482316 0.7550097 0.2426817 0.0808939 -0.33705792
-0.14830548 -0.22919938 0.22919938 0.04044695 -0.0808939 -0.4044695 0.026964633 -0.053929266
-0.013482316 0.04044695 0.4044695 0.20223475 -0.17527011 -0.28312865 0.1617878 -0.094376214
-0.22919938 -0.22919938 -0.1617878 -0.12134085 -0.06741158 0.04044695 -0.44491643 -0.31009328
-0.094376214 -0.06741158 0.04044695 -0.06741158 -0.06741158 0.04044695 -0.18875243 0.12134085
-0.053929266 -0.094376214 0.053929266 0.04044695 -0.094376214 0.12134085 0.12134085 -0.1617878
0.14830548 0.0 0.57973963 -0.094376214 -0.18875243 -0.094376214 -0.12134085 -0.14830548
00000000: 05ef 0001 feee fff9 fe06 fbfd 09fc 04fc
00000010: ea01 d71b 0303 07f8 0c0d fce2 09e9 f7f7
00000020: 08f8 00e1 05ed ea05 1218 ee05 0302 ff09
00000030: 02ee 0f04 0bfb 08f4 04f7 f8fe f608 e90f
00000040: 0304 e409 1df5 0304 f701 fbf8 0513 1302
00000050: f505 f308 0ae9 0c00 ef16 10fe 0de7 0018
00000060: 0301 faf1 020a fb0a f8fe 131a 02fe 0504
00000070: 0601 0903 f40b fb08 1c06 ff01 fefe f1f2
00000080: f01e 1705 03ec 14fe 040c 02ea 04fb f9f5
00000090: f7fa 03f8 fa12 0bf9 0703 f814 0ffa f9fb
000000a0: 0300 fa00 f5e3 f017 00d2 13fc fe1b 2afa
000000b0: f104 f50e 140c ed00 ecff fd09 fc17 fbec
000000c0: 04ee 0bfb ea08 fc0d f702 ee0a 3812 06e7
000000d0: f5ef 1103 fae2 02fc ff03 1e0f f3eb 0cf9
000000e0: efef f4f7 fb03 dfe9 f9fb 03fb fb03 f209
000000f0: fcf9 0403 f909 09f4 0b00 2bf9 f2f9 f7f5

recog/birnn/bidirectional_rnn/bw/rnn3/forget_bias f4 [164]
1.03857 0.9266907 0.91205996 0.95112044 0.9576173 0.9525468 1.0309488 0.98267645
0.9684956 0.9559945 1.0318443 0.93725616 1.0530424 0.8716927 1.1057019 0.88469124
1.0260118 0.99925303 0.94556963 0.9572635 0.8846939 0.890916 1.0518105 0.9992643
0.93469316 0.9937387 1.0531887 0.9929191 0.98113465 0.9231885 0.99948007 0.86808527
1.004421 1.0391213 1.0340742 1.0075052 0.9395621 1.0531485 0.9694454 1.0913056
0.97842664 0.95553654 0.9198685 0.9616303 0.9906271 0.9775186 0.91206634 0.9110214
0.9345817 1.047511 0.8772598 0.9681562 0.9040595 0.88583416 0.91225696 1.0074608
0.9560961 0.97682357 0.9467286 1.0001138 0.94414145 0.9030839 0.9741031 1.0812525
0.91642153 1.0188478 0.9364415 0.9272022 0.9223912 1.1637074 1.0165378 0.9620646
0.9329526 0.8861671 0.99061716 0.94645864 0.99064237 0.90272504 0.99328995 1.058717
0.9822063 0.91446763 0.94642985 1.0540129 0.95793414 0.9392531 1.0218939 0.8817135
0.91663307 0.8875593 1.1773353 1.3454432 0.94336945 1.0589488 0.9554485 1.0126241
0.919339 1.0358691 1.0113019 1.0278946 0.90820706 0.84976983 0.9328452 1.0414784
0.8617644 0.83445686 0.8607521 0.9595365 1.0177202 1.1045779 0.99116975 0.9081548
1.0010531 0.86615527 0.90307087 1.0717151 0.880118 1.0284485 0.8980124 0.9830478
1.0533066 1.091989 0.9576963 1.0362867 0.79964167 0.95178384 0.8921545 1.0292728
0.8791987 1.056554 0.89243186 0.98281467 1.0171491 0.93220294 0.94662005 0.95444274
0.9670079 0.9826639 0.9139564 0.94023174 0.9441924 0.95189327 0.87167144 0.94370645
0.92684656 0.87950695 0.91296434 0.8827166 1.0115086 1.0173787 0.9279735 0.91403157
0.9712539 1.0262066 0.88361543 1.024465 1.0866517 0.9144135 0.96603745 1.0081683
0.8848182 0.9596664 1.06049 0.9275892
00000000: ddef 843f 9a3b 6d3f c37c 693f a17c 733f
00000010: 6826 753f 1bda 733f 21f6 833f af90 7b3f
00000020: 54ef 773f 0ebc 743f 7913 843f 05f0 6f3f
00000030: 18ca 863f 4127 5f3f a487 8d3f 207b 623f
00000040: 5b54 833f 0ccf 7f3f da10 723f 390f 753f
00000050: 4d7b 623f 1213 643f baa1 863f c9cf 7f3f
00000060: 0d48 6f3f a965 7e3f e3ce 863f f22f 7e3f
00000070: a42b 7b3f 1556 6c3f eddd 7f3f d63a 5e3f
00000080: de90 803f ed01 853f 8b5c 843f eef5 803f
00000090: 2487 703f 92cd 863f 932d 783f e7af 8b3f
000000a0: 2b7a 7a3f 0b9e 743f 817c 6b3f 672d 763f
000000b0: bd99 7d3f a93e 7a3f 2e7d 693f b338 693f
000000c0: bf40 6f3f d714 863f 1994 603f 16d9 773f
000000d0: 7270 673f 07c6 623f ac89 693f 7af4 803f
000000e0: b7c2 743f 1c11 7a3f ce5c 723f bb03 803f
000000f0: 41b3 713f 8230 673f d25e 793f 7b66 8a3f
00000100: 9a9a 6a3f 9b69 823f a1ba 6f3f 205d 6d3f
00000110: d421 6c3f 5df4 943f e91d 823f de49 763f
00000120: fbd5 6e3f d9db 623f 1699 7d3f 1d4b 723f
00000130: bd9a 7d3f fd18 673f 4048 7e3f 0a84 873f
00000140: df71 7b3f 8d1a 6a3f 3a49 723f e5e9 863f
00000150: 2c3b 753f e472 703f 6bcd 823f fab7 613f
00000160: 77a8 6a3f 1637 633f ecb2 963f 7c37 ac3f
00000170: a980 713f a28b 873f 4698 743f ab9d 813f
00000180: cd59 6b3f 5c97 843f 5772 813f 0d92 833f
00000190: 4280 683f 848a 593f f1ce 6e3f 2a4f 853f
000001a0: 979c 5c3f f79e 553f 405a 5c3f 2fa4 753f
000001b0: a844 823f cf62 8d3f 4dbd 7d3f d57c 683f
000001c0: 8222 803f 5abc 5d3f a72f 673f f62d 893f
000001d0: 6a4f 613f 33a4 833f 24e4 653f 05a9 7b3f
000001e0: c0d2 863f 4cc6 8b3f 962b 753f 0ba5 843f
000001f0: 51b5 4c3f 1ba8 733f 3d64 643f 36bf 833f
00000200: 2a13 613f 293d 873f 6a76 643f be99 7b3f
00000210: f131 823f daa4 6e3f b155 723f 5c56 743f
00000220: d48d 773f dd8f 7b3f 0cf9 693f 07b3 703f
00000230: 98b6 713f 47af 733f dc25 5f3f bf96 713f
00000240: d145 6d3f 5e27 613f 08b8 693f b7f9 613f
00000250: 1d79 813f 7739 823f ac8f 6d3f f9fd 693f
00000260: 18a4 783f bd5a 833f 9f34 623f ab21 833f
00000270: 6717 8b3f 0117 6a3f 3b4e 773f a90b 813f
00000280: 7283 623f b2ac 753f 23be 873f 7c76 6d3f

recog/birnn/bidirectional_rnn/bw/rnn3/input_bias f4 [164]
-0.11067483 -0.06783848 -0.110454895 0.018913416 -0.012413695 -0.13332123 -0.06609766 -0.096914046
-0.036467712 -0.012908645 -0.19128492 -0.15923774 -0.0054825945 -0.014300397 0.06424139 -0.10862835
-0.10386106 -0.017541364 -0.07342332 -0.042888444 -0.11332709 -0.17631221 -0.00066464074 -0.079678126
-0.035100747 -0.046396073 -0.102800995 -0.1639136 -0.08631586 0.034217343 -0.01807163 -0.01770115
-0.23874913 -0.087419435 -0.17258886 -0.22032751 -0.13033271 -0.1271782 -0.04179508 -0.24856463
-0.2136052 -0.16197315 -0.0627866 -0.09304174 -0.100588754 -0.10806077 -0.05401654 -0.050951444
-0.032902744 -0.10985219 -0.092283554 -0.11760659 -0.098755576 -0.078299984 0.06822687 -0.17731418
-0.06633938 -0.024517741 -0.09689509 0.045392033 -0.012608224 -0.004710283 -0.09240926 -0.1861138
0.09593895 -0.090042494 -0.18513371 -0.051114526 -0.12509066 0.16113292 -0.06644339 0.0133917155
-0.11584506 -0.024576223 0.053290457 -0.042227056 0.015745288 -0.051431935 -0.07030806 -0.08663334
-0.13783579 0.026986912 -0.030095955 0.00083321804 -0.15193607 -0.1880502 -0.18525267 -0.010866407
-0.0676376 -0.032167234 0.19721517 -0.19418146 -0.007258259 -0.22426051 -0.088307366 -0.11883127
-0.15618803 0.114800856 -0.043505512 -0.14980869 -0.11156951 -0.056780137 -0.082500145 -0.1390595
-0.115310125 -0.03641829 0.09813731 -0.15752155 -0.20231183 0.11501856 -0.07821984 -0.089297414
-0.2290782 -0.05077643 -0.09321038 -0.023795702 -0.01868304 -0.18605903 -0.039755628 -0.10376738
-0.10222498 -0.09800086 -0.07182415 -0.08497907 -0.04200533 -0.015836716 0.15337421 -0.048053227
-0.10340753 -0.22116572 -0.16275376 -0.115130045 -0.0554054 -0.14394003 -0.038649715 -0.016809635
0.018463189 0.013107863 -0.069645114 -0.06814553 -0.1604892 -0.10073107 -0.13836432 -0.08421199
-0.0052554035 -0.10910953 -0.08687892 -0.08861054 -0.16684435 0.01866392 -0.062909 -0.04128568
-0.023462623 -0.21472974 0.052391388 -0.048225924 0.13610785 0.118226424 -0.11080041 -0.07111428
-0.044279147 -0.037402917 -0.08659123 -0.10422808
00000000: 7ca9 e2bd e7ee 8abd 2d36 e2bd 4ff0 9a3c
00000010: d062 4bbc 5c85 08be 365e 87bd df7a c6bd
00000020: 2b5f 15bd c87e 53bc 32e0 43be 380f 23be
00000030: 56a7 b3bb 364c 6abc fd90 833d 8a78 debd
00000040: 1cb5 d4bd e8b2 8fbc f75e 96bd cbab 2fbd
00000050: 0918 e8bd 308b 34be 493b 2eba 492e a3bd
00000060: cdc5 0fbd cf09 3ebd 5489 d2bd f7d8 27be
00000070: 5fc6 b0bd 7c27 0c3d f40a 94bc 0102 91bc
00000080: a77a 74be f608 b3bd 22bb 30be 899d 61be
00000090: f075 05be 013b 02be 5131 2bbd ba87 7ebe
000000a0: 52bb 5abe 4adc 25be 4396 80bd ab8c bebd
000000b0: 7a01 cebd f74e ddbd 7340 5dbd 76b2 50bd
000000c0: 07c5 06bd 2ffa e0bd 29ff bcbd b9db f0bd
000000d0: 5d40 cabd be5b a0bd 87ba 8b3d d991 35be
000000e0: f1dc 87bd 6ed9 c8bc ef70 c6bd ffec 393d
000000f0: b992 4ebc b858 9abb 1141 bdbd 9e94 3ebe
00000100: a47b c43d 3368 b8bd b193 3dbe 775d 51bd
00000110: c417 00be 0700 253e 7913 88bd ed68 5b3c
00000120: 2d40 edbd 1354 c9bc 1847 5a3d 47f6 2cbd
00000130: 43fc 803c 4baa 52bd acfd 8fbd d26c b1bd
00000140: d324 0dbe a813 dd3c cb8b f6bc 516c 5a3a
00000150: 2195 1bbe 3b90 40be e0b2 3dbe 0409 32bc
00000160: 9585 8abd cac1 03bd c6f2 493e 81d7 46be
00000170: b1d6 edbb 8ca4 65be 7eda b4bd cf5d f3bd
00000180: c1ef 1fbe b61c eb3d d632 32bd 7367 19be
00000190: 8e7e e4bd 4a92 68bd d6f5 a8bd 9d65 0ebe
000001a0: b727 ecbd 582b 15bd 37fc c83d 544d 21be
000001b0: d52a 4fbe da8e eb3d b931 a0bd 90e1 b6bd
000001c0: 7a93 6abe f2fa 4fbd 15e5 bebd 34ef c2bc
000001d0: 2d0d 99bc 4286 3ebe ccd6 22bd fe83 d4bd
000001e0: 555b d1bd adb4 c8bd 8a18 93bd 8209 aebd
000001f0: c80d 2cbd 00bc 81bc 210e 1d3e 76d3 44bd
00000200: 54c7 d3bd 4479 62be eca8 26be 4dc9 ebbd
00000210: c6f0 62bd 0465 13be 2a4f 1ebd 5cb4 89bc
00000220: 1d40 973c 5dc2 563c 19a2 8ebd e28f 8bbd
00000230: 4857 24be 174c cebd 60af 0dbe 5677 acbd
00000240: 8535 acbb d174 dfbd 93ed b1bd 7179 b5bd
00000250: 3fd9 2abe 14e5 983c 6fd6 80bd 2c1b 29bd
00000260: b034 c0bc 1de2 5bbe 5a98 563d 8c88 45bd
00000270: db5f 0b3e b220 f23d 53eb e2bd 5da4 91bd
00000280: 0d5e 35bd cd33 19bd be56 b1bd 8875 d5bd

recog/birnn/bidirectional_rnn/bw/rnn3/input_to_cell_w i1 [164, 164] scale=0.0059823245 zero_point=0
-0.05384092 0.16750509 0.023929298 0.07777022 0.047858596 0.13161114 -0.16152276 -0.15554044
0.071787894 0.15554044 -0.113664165 0.13759346 0.13161114 -0.101699516 -0.017946973 -0.101699516
-0.08973487 0.13161114 -0.07777022 0.10768184 0.13759346 -0.08375254 0.113664165 -0.14357579
-0.0059823245 0.23331065 -0.101699516 -0.14357579 0.16750509 0.101699516 0.21536368 0.0
-0.017946973 -0.16750509 0.16750509 0.011964649 -0.07777022 -0.12562881 -0.08375254 0.13759346
-0.017946973 -0.017946973 0.0 0.059823245 -0.04187627 -0.0059823245 -0.20938136 -0.15554044
0.047858596 -0.059823245 -0.18545206 0.047858596 -0.0059823245 0.08973487 -0.04187627 0.023929298
-0.10768184 0.20339903 0.13759346 -0.08375254 0.071787894 -0.011964649 -0.25125763 0.023929298
0.17348741 -0.035893947 0.08375254 0.101699516 0.029911622 0.035893947 0.08973487 -0.17348741
-0.10768184 -0.05384092 -0.06580557 0.0059823245 -0.10768184 -0.0059823245 0.27518693 -0.04187627
0.05384092 -0.13161114 0.0 0.059823245 -0.12562881 -0.05384092 0.08375254 0.113664165
0.23929298 0.0059823245 0.04187627 0.11964649 -0.17348741 -0.08375254 0.023929298 -0.029911622
-0.08973487 -0.16750509 0.20938136 0.09571719 -0.04187627 0.07777022 0.14955811 0.023929298
0.14357579 0.25723994 -0.13759346 0.08973487 -0.11964649 0.06580557 0.16750509 -0.0059823245
0.08973487 0.04187627 -0.08973487 -0.017946973 -0.035893947 -0.017946973 0.07777022 0.071787894
0.12562881 -0.11964649 -0.07777022 -0.16152276 0.08973487 0.101699516 -0.11964649 -0.017946973
0.16750509 -0.04187627 -0.113664165 0.23331065 -0.07777022 0.04187627 0.08973487 -0.023929298
-0.09571719 0.011964649 0.23929298 -0.029911622 0.34697482 -0.14357579 0.047858596 0.19741671
-0.08375254 -0.10768184 0.071787894 0.017946973 -0.059823245 0.035893947 0.12562881 -0.0059823245
0.017946973 0.017946973 0.08973487 0.017946973 -0.101699516 -0.13161114 -0.0059823245 -0.20339903
-0.059823245 -0.071787894 -0.059823245 0.017946973 -0.0059823245 -0.19741671 -0.029911622 -0.047858596
-0.017946973 0.0059823245 -0.023929298 0.101699516 -0.11964649 -0.16152276 0.035893947 -0.011964649
-0.08973487 -0.10768184 0.0059823245 -0.023929298 0.16750509 -0.08375254 -0.023929298 0.017946973
0.09571719 0.0 -0.16750509 -0.08973487 -0.113664165 -0.05384092 -0.08973487 0.04187627
0.0059823245 -0.06580557 -0.05384092 -0.011964649 -0.017946973 -0.047858596 -0.071787894 0.06580557
-0.035893947 -0.10768184 -0.4666213 -0.113664165 -0.113664165 -0.029911622 -0.09571719 -0.06580557
0.05384092 0.035893947 0.035893947 -0.06580557 -0.017946973 -0.113664165 0.101699516 0.023929298
0.035893947 -0.09571719 0.08973487 -0.10768184 0.0059823245 -0.071787894 -0.0059823245 0.0
-0.011964649 0.047858596 -0.071787894 -0.08973487 -0.05384092 0.017946973 -0.059823245 -0.08375254
0.023929298 -0.27518693 -0.08375254 -0.07777022 0.0 -0.08375254 -0.07777022 0.011964649
0.08973487 -0.11964649 0.15554044 0.011964649 -0.023929298 -0.08973487 0.017946973 0.047858596
-0.14955811 -0.15554044 -0.19741671 0.05384092 0.059823245 0.047858596 -0.17946973 -0.06580557
00000000: f71c 040d 0816 e5e6 0c1a ed17 16ef fdef
00000010: f116 f312 17f2 13e8 ff27 efe8 1c11 2400
00000020: fde4 1c02 f3eb f217 fdfd 000a f9ff dde6
00000030: 08f6 e108 ff0f f904 ee22 17f2 0cfe d604
00000040: 1dfa 0e11 0506 0fe3 eef7 f501 eeff 2ef9
00000050: 09ea 000a ebf7 0e13 2801 0714 e3f2 04fb
00000060: f1e4 2310 f90d 1904 182b e90f ec0b 1cff
00000070: 0f07 f1fd fafd 0d0c 15ec f3e5 0f11 ecfd
00000080: 1cf9 ed27 f307 0ffc f002 28fb 3ae8 0821
00000090: f2ee 0c03 f606 15ff 0303 0f03 efea ffde
000000a0: f6f4 f603 ffdf fbf8 fd01 fc11 ece5 06fe
000000b0: f1ee 01fc 1cf2 fc03 1000 e4f1 edf7 f107
000000c0: 01f5 f7fe fdf8 f40b faee b2ed edfb f0f5
000000d0: 0906 06f5 fded 1104 06f0 0fee 01f4 ff00
000000e0: fe08 f4f1 f703 f6f2 04d2 f2f3 00f2 f302
000000f0: 0fec 1a02 fcf1 0308 e7e6 df09 0a08 e2f5

recog/birnn/bidirectional_rnn/bw/rnn3/input_to_forget_w i1 [164, 164] scale=0.006273045 zero_point=0
0.031365227 0.10036872 0.11918786 0.09409568 0.062730454 0.23837572 0.3199253 0.062730454
0.08782263 0.112914816 0.10036872 -0.018819135 -0.031365227 0.062730454 -0.043911316 0.006273045
0.02509218 0.2070105 0.043911316 0.10664177 0.081549585 -0.062730454 0.081549585 -0.0690035
0.031365227 -0.006273045 -0.02509218 0.15055308 -0.081549585 0.13173395 0.1944644 0.14428005
0.112914816 0.16309917 0.15682612 0.0 0.062730454 -0.07527654 0.13173395 -0.112914816
-0.081549585 0.3199253 0.09409568 0.018819135 0.031365227 -0.08782263 0.11918786 0.21328354
-0.02509218 -0.01254609 0.05018436 -0.018819135 -0.05018436 -0.112914816 0.112914816 0.062730454
0.12546091 0.01254609 0.0690035 -0.056457408 0.10664177 -0.062730454 0.112914816 0.12546091
0.13173395 0.08782263 0.112914816 0.08782263 -0.23837572 0.20073745 0.006273045 0.02509218
0.09409568 0.07527654 -0.03763827 -0.006273045 0.08782263 0.01254609 0.018819135 -0.018819135
0.081549585 0.0 0.15055308 -0.14428005 0.043911316 0.18819135 -0.0690035 -0.0690035
0.16309917 0.3324714 0.043911316 0.0 0.031365227 -0.03763827 0.03763827 0.07527654
0.07527654 0.062730454 0.18191831 0.081549585 0.12546091 -0.22582963 -0.12546091 0.12546091
0.05018436 0.14428005 -0.05018436 -0.1944644 0.112914816 0.16309917 0.18819135 0.18819135
0.02509218 0.10036872 0.22582963 0.10664177 0.20073745 0.23837572 -0.09409568 -0.043911316
-0.10664177 0.13173395 -0.05018436 0.056457408 -0.01254609 0.081549585 -0.043911316 -0.07527654
0.10036872 0.414021 -0.03763827 0.031365227 -0.11918786 0.16937222 -0.15682612 0.056457408
0.10664177 -0.03763827 -0.031365227 0.08782263 0.15682612 0.031365227 0.006273045 0.056457408
0.08782263 0.081549585 0.031365227 0.11918786 -0.0690035 0.138007 -0.01254609 -0.02509218
0.03763827 0.112914816 0.10036872 -0.081549585 0.10036872 0.24464877 -0.0690035 0.32619834
0.28228703 0.0 0.02509218 -0.10036872 -0.056457408 -0.031365227 -0.006273045 0.081549585
0.05018436 -0.15682612 0.018819135 -0.056457408 0.062730454 -0.062730454 -0.07527654 -0.10036872
0.112914816 0.13173395 0.01254609 0.07527654 -0.043911316 0.15682612 0.031365227 -0.12546091
-0.10036872 0.0 0.01254609 0.30110615 -0.018819135 -0.05018436 0.08782263 0.15055308
-0.24464877 0.10036872 0.112914816 -0.08782263 0.07527654 -0.13173395 -0.12546091 -0.081549585
-0.09409568 -0.05018436 0.30110615 0.062730454 -0.0690035 -0.056457408 -0.02509218 -0.10664177
0.01254609 0.018819135 -0.018819135 -0.02509218 -0.01254609 0.10664177 -0.09409568 -0.05018436
0.006273045 0.138007 0.018819135 -0.112914816 -0.02509218 0.043911316 -0.031365227 -0.01254609
-0.006273045 0.062730454 0.16937222 0.01254609 -0.16309917 0.16937222 -0.10036872 -0.043911316
-0.25719485 0.14428005 0.01254609 -0.14428005 -0.13173395 -0.18819135 -0.21955658 0.0690035
-0.018819135 0.14428005 -0.03763827 -0.0690035 -0.09409568 0.081549585 -0.062730454 -0.056457408
0.09409568 0.2070105 -0.10664177 0.02509218 0.01254609 -0.14428005 -0.08782263 0.17564526
00000000: 0510 130f 0a26 330a 0e12 10fd fb0a f901
00000010: 0421 0711 0df6 0df5 05ff fc18 f315 1f17
00000020: 121a 1900 0af4 15ee f333 0f03 05f2 1322
00000030: fcfe 08fd f8ee 120a 1402 0bf7 11f6 1214
00000040: 150e 120e da20 0104 0f0c faff 0e02 03fd
00000050: 0d00 18e9 071e f5f5 1a35 0700 05fa 060c
00000060: 0c0a 1d0d 14dc ec14 0817 f8e1 121a 1e1e
00000070: 0410 2411 2026 f1f9 ef15 f809 fe0d f9f4
00000080: 1042 fa05 ed1b e709 11fa fb0e 1905 0109
00000090: 0e0d 0513 f516 fefc 0612 10f3 1027 f534
000000a0: 2d00 04f0 f7fb ff0d 08e7 03f7 0af6 f4f0
000000b0: 1215 020c f919 05ec f000 0230 fdf8 0e18
000000c0: d910 12f2 0ceb ecf3 f1f8 300a f5f7 fcef
000000d0: 0203 fdfc fe11 f1f8 0116 03ee fc07 fbfe
000000e0: ff0a 1b02 e61b f0f9 d717 02e9 ebe2 dd0b
000000f0: fd17 faf5 f10d f6f7 0f21 ef04 02e9 f21c

recog/birnn/bidirectional_rnn/bw/rnn3/input_to_input_w i1 [164, 164] scale=0.008230645 zero_point=0
-0.03292258 0.03292258 0.01646129 -0.19753549 0.057614516 -0.106998384 -0.09876774 -0.18930484
-0.03292258 0.0 -0.01646129 -0.01646129 -0.18930484 -0.04938387 -0.08230645 -0.08230645
0.0 0.0905371 0.13169032 0.0 0.024691936 -0.024691936 -0.25515 -0.106998384
-0.06584516 -0.01646129 -0.4691468 0.106998384 -0.03292258 0.09876774 0.024691936 -0.041153226
0.04938387 -0.32099515 -0.0905371 -0.11522903 0.0740758 -0.1646129 0.0905371 0.0905371
0.01646129 -0.13169032 0.15638226 -0.1481516 -0.0740758 0.01646129 -0.1481516 -0.08230645
-0.15638226 -0.008230645 0.25515 0.2716113 0.008230645 -0.03292258 -0.25515 -0.09876774
-0.15638226 0.0740758 -0.17284355 0.0740758 -0.057614516 -0.09876774 -0.0905371 0.01646129
-0.024691936 -0.17284355 -0.057614516 -0.024691936 -0.04938387 -0.13169032 0.13992096 0.057614516
-0.08230645 0.0905371 0.057614516 -0.0905371 -0.18930484 0.008230645 0.21399677 -0.09876774
0.1810742 0.01646129 -0.20576613 -0.04938387 -0.1810742 -0.01646129 0.03292258 0.024691936
-0.008230645 -0.041153226 -0.27984193 0.0740758 -0.0740758 0.06584516 -0.08230645 -0.03292258
-0.15638226 0.18930484 -0.0740758 -0.3621484 -0.08230645 0.09876774 0.106998384 0.22222742
-0.024691936 -0.33745646 0.11522903 0.08230645 -0.03292258 -0.4773774 -0.03292258 0.008230645
0.06584516 0.1810742 -0.2880726 -0.3868403 -0.20576613 -0.13992096 0.12345968 0.11522903
0.0740758 -0.03292258 -0.0905371 -0.024691936 0.03292258 -0.03292258 -0.42799354 -0.18930484
0.041153226 -0.32099515 -0.15638226 0.0 -0.008230645 -0.13992096 0.1646129 0.01646129
-0.1810742 0.0 0.13169032 -0.03292258 -0.39507097 -0.23045807 -0.041153226 -0.1481516
-0.08230645 0.008230645 -0.2963032 -0.041153226 -0.041153226 -0.09876774 -0.18930484 0.08230645
0.057614516 -0.1810742 -0.11522903 -0.04938387 -0.1646129 -0.20576613 0.057614516 -0.13992096
-0.0905371 -0.15638226 -0.03292258 0.06584516 -0.1481516 -0.041153226 0.17284355 -0.01646129
-0.20576613 -0.041153226 0.13169032 0.0905371 0.057614516 0.04938387 0.1810742 0.106998384
0.106998384 -0.13169032 0.0 0.008230645 0.04938387 -0.25515 -0.008230645 0.06584516
0.01646129 0.0 0.12345968 -0.041153226 -0.13992096 0.13992096 0.22222742 0.03292258
0.057614516 -0.041153226 0.041153226 0.0 -0.04938387 0.04938387 0.03292258 -0.008230645
0.04938387 0.1646129 0.0740758 0.33745646 0.024691936 0.11522903 0.12345968 0.19753549
-0.04938387 0.0740758 -0.0905371 -0.106998384 0.1646129 0.2963032 0.32099515 0.01646129
-0.03292258 0.008230645 -0.06584516 -0.041153226 -0.041153226 0.13169032 0.24691936 -0.13169032
-0.01646129 -0.03292258 0.057614516 0.03292258 0.12345968 -0.17284355 -0.22222742 -0.1810742
-0.11522903 0.15638226 -0.0740758 -0.024691936 -0.0740758 -0.0740758 0.06584516 0.0740758
0.04938387 0.19753549 -0.024691936 -0.11522903 0.08230645 0.041153226 0.03292258 0.01646129
-0.18930484 -0.2386887 0.19753549 0.19753549 -0.09876774 0.024691936 0.106998384 -0.01646129
00000000: fc04 02e8 07f3 f4e9 fc00 fefe e9fa f6f6
00000010: 000b 1000 03fd e1f3 f8fe c70d fc0c 03fb
00000020: 06d9 f5f2 09ec 0b0b 02f0 13ee f702 eef6
00000030: edff 1f21 01fc e1f4 ed09 eb09 f9f4 f502
00000040: fdeb f9fd faf0 1107 f60b 07f5 e901 1af4
00000050: 1602 e7fa eafe 0403 fffb de09 f708 f6fc
00000060: ed17 f7d4 f60c 0d1b fdd7 0e0a fcc6 fc01
00000070: 0816 ddd1 e7ef 0f0e 09fc f5fd 04fc cce9
00000080: 05d9 ed00 ffef 1402 ea00 10fc d0e4 fbee
00000090: f601 dcfb fbf4 e90a 07ea f2fa ece7 07ef
000000a0: f5ed fc08 eefb 15fe e7fb 100b 0706 160d
000000b0: 0df0 0001 06e1 ff08 0200 0ffb ef11 1b04
000000c0: 07fb 0500 fa06 04ff 0614 0929 030e 0f18
000000d0: fa09 f5f3 1424 2702 fc01 f8fb fb10 1ef0
000000e0: fefc 0704 0feb e5ea f213 f7fd f7f7 0809
000000f0: 0618 fdf2 0a05 0402 e9e3 1818 f403 0dfe

recog/birnn/bidirectional_rnn/bw/rnn3/input_to_output_w i1 [164, 164] scale=0.014315893 zero_point=0
-0.1861066 0.08589536 0.11452714 0.04294768 0.15747482 -0.014315893 0.04294768 -0.028631786
-0.04294768 0.32926553 -0.12884304 0.04294768 0.2147384 0.0 0.22905429 -0.04294768
0.028631786 -0.05726357 -0.028631786 -0.10021125 0.15747482 -0.10021125 0.028631786 0.14315893
-0.014315893 -0.028631786 0.014315893 0.014315893 0.05726357 -0.04294768 -0.071579464 -0.17179072
0.014315893 -0.10021125 0.1861066 0.04294768 0.08589536 0.12884304 0.400845 0.10021125
-0.08589536 0.15747482 -0.014315893 -0.04294768 0.3722132 0.028631786 0.0 -0.071579464
0.028631786 -0.10021125 -0.05726357 0.014315893 0.45810857 -0.014315893 0.12884304 0.05726357
0.11452714 -0.04294768 0.22905429 0.17179072 0.10021125 -0.014315893 0.11452714 -0.014315893
-0.028631786 0.028631786 -0.14315893 0.14315893 0.071579464 0.25768608 0.38652912 0.14315893
0.05726357 0.14315893 0.08589536 -0.014315893 0.24337018 -0.12884304 -0.014315893 -0.10021125
-0.10021125 -0.014315893 -0.04294768 0.15747482 0.17179072 0.32926553 0.08589536 -0.014315893
-0.028631786 0.11452714 -0.17179072 0.08589536 -0.071579464 0.17179072 0.10021125 -0.14315893
-0.04294768 0.10021125 0.0 -0.014315893 0.08589536 -0.14315893 0.2004225 0.0
0.028631786 0.014315893 0.04294768 -0.10021125 -0.10021125 0.05726357 0.05726357 0.1861066
0.2147384 -0.10021125 0.04294768 0.071579464 -0.028631786 -0.014315893 -0.22905429 -0.11452714
-0.028631786 0.04294768 0.15747482 -0.028631786 -0.028631786 0.15747482 -0.14315893 0.12884304
-0.08589536 0.08589536 0.05726357 0.11452714 0.08589536 0.04294768 -0.15747482 0.014315893
0.14315893 -0.071579464 -0.028631786 0.071579464 -0.12884304 0.08589536 0.08589536 0.11452714
-0.028631786 0.11452714 0.0 0.1861066 0.10021125 -0.028631786 0.08589536 -0.08589536
0.1861066 0.08589536 -0.014315893 -0.12884304 -0.08589536 -0.071579464 0.014315893 0.04294768
0.12884304 0.05726357 0.17179072 0.15747482 -0.05726357 -0.071579464 0.071579464 -0.04294768
-0.04294768 -0.08589536 0.071579464 -0.12884304 -0.028631786 0.05726357 -0.04294768 0.14315893
0.014315893 -0.28631786 0.6155834 0.1861066 0.2004225 0.028631786 0.2147384 0.014315893
-0.071579464 0.0 -0.12884304 0.24337018 0.04294768 0.08589536 0.12884304 -0.2147384
0.014315893 -0.071579464 0.12884304 0.08589536 0.071579464 0.17179072 -0.028631786 0.05726357
0.028631786 -0.10021125 0.04294768 0.11452714 0.1861066 0.04294768 0.12884304 0.14315893
0.30063376 0.3578973 0.071579464 0.028631786 -0.10021125 -0.05726357 0.10021125 0.11452714
0.5726357 0.24337018 0.11452714 0.12884304 0.15747482 0.22905429 0.12884304 0.014315893
0.12884304 -0.11452714 -0.2004225 0.11452714 -0.11452714 -0.1861066 -0.04294768 0.04294768
0.2004225 -0.11452714 -0.1861066 -0.30063376 0.028631786 0.05726357 0.028631786 -0.04294768
0.3578973 -0.12884304 -0.31494963 -0.12884304 0.05726357 0.014315893 -0.25768608 0.400845
-0.10021125 0.014315893 -0.04294768 0.04294768 0.14315893 -0.11452714 -0.028631786 -0.17179072
00000000: f306 0803 0bff 03fe fd17 f703 0f00 10fd
00000010: 02fc fef9 0bf9 020a fffe 0101 04fd fbf4
00000020: 01f9 0d03 0609 1c07 fa0b fffd 1a02 00fb
00000030: 02f9 fc01 20ff 0904 08fd 100c 07ff 08ff
00000040: fe02 f60a 0512 1b0a 040a 06ff 11f7 fff9
00000050: f9ff fd0b 0c17 06ff fe08 f406 fb0c 07f6
00000060: fd07 00ff 06f6 0e00 0201 03f9 f904 040d
00000070: 0ff9 0305 feff f0f8 fe03 0bfe fe0b f609
00000080: fa06 0408 0603 f501 0afb fe05 f706 0608
00000090: fe08 000d 07fe 06fa 0d06 fff7 fafb 0103
000000a0: 0904 0c0b fcfb 05fd fdfa 05f7 fe04 fd0a
000000b0: 01ec 2b0d 0e02 0f01 fb00 f711 0306 09f1
000000c0: 01fb 0906 050c fe04 02f9 0308 0d03 090a
000000d0: 1519 0502 f9fc 0708 2811 0809 0b10 0901
000000e0: 09f8 f208 f8f3 fd03 0ef8 f3eb 0204 02fd
000000f0: 19f7 eaf7 0401 ee1c f901 fd03 0af8 fef4
